model/tb_logs/ranking_model/version_1/checkpoints/epoch=9-step=1770.ckpt (torch, 46091 bytes, 15 tensors)

fc1.weight f4 [64, 14]
0.15174939 0.27507216 -0.055816025 0.23785843 -0.01737744 0.08566175 -0.09846681 0.20188715
0.21074094 -0.17094386 0.20562859 0.08237984 0.28518924 0.06105081 0.18362378 -0.08090165
0.15309313 0.078085974 -0.121868476 0.17476283 -0.12632194 0.03880807 -0.13561839 0.18773112
-0.38928068 -0.023957347 0.077255785 -0.09983002 -0.0067367265 -0.25570965 0.24027744 -0.25544816
0.22238648 0.12213583 -0.09396968 0.2078309 0.019866597 0.2745671 -0.010433312 -0.05648936
0.095408954 -0.07270681 0.10901307 0.29042995 0.1536672 -0.09212591 0.174594 0.09377563
0.1787652 -0.1108893 -0.30788776 -0.08749008 -0.2812029 0.2606748 0.12952922 0.09053601
0.0010983893 -0.038668297 0.10807169 -0.23804249 -0.040664796 -0.1532339 0.020774217 -0.12157299
-0.0070982156 -0.17516795 0.091578014 -0.1363248 -0.32645229 0.035595544 0.19476758 0.16724671
0.2897105 -0.22937815 -0.2618885 -0.13232924 -0.1462319 0.17073236 0.066987544 0.24025624
-0.16666986 -0.11750891 0.20168944 -0.054912653 0.11949564 -0.0026870277 0.16602023 -0.18697435
-0.09686559 0.11948191 0.100842364 -0.023856545 0.12773646 0.1997415 -0.23987155 -0.09548134
0.295753 -0.074557774 -0.10959299 -0.18901865 -0.13587582 0.28774294 -0.058439985 -0.031324543
0.14517282 -0.100736246 -0.31816214 -0.026777389 -0.31801823 -0.060954697 0.38919812 0.036082048
0.011329667 -0.110479355 -0.14497018 0.009338107 0.090016715 -0.16200387 -0.0072309775 -0.081614636
-0.121715225 -0.15470862 -0.016646465 -0.059099328 -0.20359874 -0.031957272 -0.07246351 -0.21322598
0.14269617 -0.07797194 0.18316378 0.23959337 -0.26964995 0.25036868 -0.10058688 -0.086017504
-0.20657079 -0.19243875 0.13663493 -0.09811428 0.11422595 -0.20782973 0.22920811 -0.16415231
-0.02174163 0.07803075 0.21159157 0.25754535 0.22176139 -0.19022478 0.07242319 -0.073000684
0.067153715 -0.148859 0.19495662 -0.14224483 0.15054874 0.09681973 0.11012816 -0.11428933
0.28079253 0.10309528 -0.007241231 -0.22146298 0.06220582 0.0047638775 -0.05319182 0.23735578
-0.054139983 -0.16944471 -0.16692771 0.015198288 0.07981978 0.03400747 -0.15408394 -0.026067715
-0.29163107 0.18437198 0.12763724 -0.21850641 0.10190457 0.16286443 0.065831296 -0.08408974
0.15020195 0.1596672 0.13627572 -0.0128273945 0.030639792 0.059307087 -0.0057050237 -0.022901481
0.20397367 0.25927734 0.09898558 -0.0046566166 -0.03877166 0.04845596 -0.031065213 0.06736689
-0.32968864 0.020509453 0.3650877 0.061904117 -0.23299997 -0.1070306 -0.22725931 -0.16773975
-0.064066015 0.07027241 0.112839624 0.18012252 -0.22621512 -0.15947022 -0.018023506 0.29491788
0.08342793 -0.025599586 0.06403352 -0.07728665 -0.23922658 0.23531166 -0.06112614 -0.031623375
-0.3113369 0.22789618 0.21684411 0.11064647 -0.1431444 -0.21494927 -0.18692908 0.2535867
0.103478976 0.23582397 0.08140897 0.12128136 0.056927107 -0.16672605 -0.21574719 -0.19731103
0.12962337 -0.003665393 -0.0006779711 -0.07430263 0.035337854 -0.11543729 -0.23865183 0.11486426
-0.1571553 0.2440056 -0.055153813 -0.13476047 -0.090920374 -0.07662658 -0.06633721 -0.2571521
00000000: 3164 1b3e 42d6 8c3e 589f 64bd 2991 733e
00000010: 225b 8ebc 6d6f af3d f8a8 c9bd 81bb 4e3e
00000020: 79cc 573e e80b 2fbe 4d90 523e c3b6 a83d
00000030: 5304 923e 6a10 7a3d df07 3c3e c4af a5bd
00000040: 72c4 1c3e 8aeb 9f3d 2e96 f9bd 07f5 323e
00000050: 8a5a 01be 36f5 1e3d 8cdf 0abe 963c 403e
00000060: cc4f c7be 3342 c4bc 4838 9e3d ae73 ccbd
00000070: c2bf dcbb 60ec 82be 4a0b 763e 1aca 82be
00000080: 48b9 633e 5a22 fa3d 2d73 c0bd a0d1 543e
00000090: 46bf a23c 0f94 8c3e 7bf0 2abc 6361 67bd
000000a0: c565 c33d 4fe7 94bd 3f42 df3d 3cb3 943e
000000b0: ef5a 1d3e 82ac bcbd c5c8 323e 700d c03d
000000c0: 390e 373e ee19 e3bd 77a3 9dbe 002e b3bd
000000d0: d4f9 8fbe 2b77 853e 4fa3 043e f26a b93d
000000e0: d4f7 8f3a a662 1ebd b154 dd3d 69c1 73be
000000f0: 2190 26bd 59e9 1cbe b12e aa3c 43fb f8bd
00000100: 2698 e8bb 3a5f 33be 418d bb3d ba98 0bbe
00000110: c124 a7be a2cc 113d 2771 473e b942 2b3e
00000120: ef54 943e 1be2 6abe 4016 86be 5181 07be
00000130: d1bd 15be 77d4 2e3e c430 893d bb05 763e
00000140: 81ab 2abe 83a8 f0bd ad87 4e3e 17ec 60bd
00000150: 21ba f43d d818 30bb 3501 2a3e 3476 3fbe
00000160: 7761 c6bd eeb2 f43d 7186 ce3d cd6e c3bc
00000170: 59cd 023e 0989 4c3e e3a0 75be b98b c3bd
00000180: f06c 973e bfb1 98bd 4a72 e0bd 1b8e 41be
00000190: 0823 0bbe 0b53 933e c45e 6fbd 2a4e 00bd
000001a0: 2fa8 143e ce4e cebd 26e6 a2be 415c dbbc
000001b0: 49d3 a2be a2ab 79bd fa44 c73e c5ca 133d
000001c0: 11a0 393c 0043 e2bd 1073 14be dcfe 183c
000001d0: af5a b83d 58e4 25be d6f1 ecbb 9325 a7bd
000001e0: d545 f9bd f06b 1ebe 2b5e 88bc 2312 72bd
000001f0: 307c 50be a1e5 02bd c067 94bd e957 5abe
00000200: f21e 123e c1af 9fbd 498f 3b3e f757 753e
00000210: 8f0f 8abe 5330 803e 7f00 cebd f229 b0bd
00000220: 4b87 53be aa0e 45be 07ea 0b3e 24f0 c8bd
00000230: 4bef e93d 51d1 54be 88b5 6a3e 8b17 28be
00000240: 811b b2bc 96ce 9f3d 76ab 583e fcdc 833e
00000250: 6b15 633e 49ca 42be 9c52 943d 6281 95bd
00000260: e387 893d 7e6e 18be b5a2 473e a1a8 11be
00000270: 7329 1a3e 6c49 c63d df8a e13d 8610 eabd
00000280: 0ac4 8f3e 9e23 d33d d947 edbb 31c7 62be
00000290: 88cb 7e3d 4d1a 9c3b aadf 59bd 650d 733e
000002a0: e3c1 5dbd ea82 2dbe 19ef 2abe 3d02 793c
000002b0: 8e78 a33d 6b4b 0b3d 2ec8 1dbe f68b d5bc
000002c0: ab50 95be 02cc 3c3e 56b3 023e 25c0 5fbe
000002d0: 58b3 d03d efc5 263e 8fd2 863d 3e37 acbd
000002e0: 8ace 193e cc7f 233e dd8b 0b3e fe29 52bc
000002f0: 4d00 fb3c fdeb 723d 35f1 babb e39b bbbc
00000300: 79de 503e 00c0 843e f4b8 ca3d 8896 98bb
00000310: 08cf 1ebd c279 463d 797c febc a7f7 893d
00000320: f3cc a8be 7103 a83c c6ec ba3e 2c8f 7d3d
00000330: 8b97 6ebe dc32 dbbd aab6 68be f8c3 2bbe
00000340: 0b35 83bd fbea 8f3d 7618 e73d 0a72 383e
00000350: f0a4 67be 294c 23be 08a6 93bc 7aff 963e
00000360: 43dc aa3d 39b6 d1bc 0224 833d 7748 9ebd
00000370: d0f7 74be 8af5 703e 675f 7abd 8387 01bd
00000380: 8d67 9fbe 9e5d 693e 620c 5e3e 9e9a e23d
00000390: 7294 12be a91b 5cbe 566a 3fbe 1ed6 813e
000003a0: c9ec d33d d77b 713e bfb9 a63d 5d62 f83d
000003b0: 662c 693d 3cba 2abe d5ec 5cbe e70b 4abe
000003c0: fdbb 043e 1737 70bb dfb9 31ba fa2b 98bd
000003d0: 6dbe 103d 636a ecbd 2561 74be f43d eb3d
000003e0: 52ed 20be 9bdc 793e f7e8 61bd a6fe 09be
000003f0: 7634 babd 65ee 9cbd cedb 87bd 71a9 83be

fc1.bias f4 [64]
-0.015217916 0.01829968 0.0047137775 0.019967547 0.3490622 0.2864074 0.37404466 0.26916057
0.4328138 0.24845032 -0.17432378 0.1453023 0.19473323 -0.092961416 -0.039686732 0.39617923
0.32779023 0.345205 0.3651408 -0.11440508 0.17496653 0.37000558 -0.035222303 0.17544132
-0.24861458 0.20585302 -0.059564378 0.13669479 0.37714037 0.047353834 0.11688415 0.291225
0.070084155 0.06773159 0.4180106 -0.13499846 -0.03214708 -0.10817573 0.023364833 -0.08164458
-0.012973651 0.25383547 0.19875087 0.057991147 -0.051716678 0.11467191 -0.12848447 -0.09808714
-0.1840057 0.16851935 -0.041272547 -0.124923654 -0.088128224 0.23906597 -0.15936616 0.068525866
0.34001178 0.30608118 0.20804913 -0.12729928 -0.21995328 -0.0015300892 0.35153508 0.10872471
00000000: 9154 79bc 36e9 953c 0876 9a3b fb92 a33c
00000010: 48b8 b23e fea3 923e c882 bf3e 6acf 893e
00000020: c599 dd3e c369 7e3e ef81 32be 20ca 143e
00000030: 2668 473e 8e62 bebd 8e8e 22bd 01d8 ca3e
00000040: 1fd4 a73e b6be b03e bcf3 ba3e 364d eabd
00000050: 6d2a 333e 5f71 bd3e 4345 10bd e4a6 333e
00000060: d294 7ebe 22cb 523e c7f9 73bd b8f9 0b3e
00000070: 8b18 c13e 18f6 413d f560 ef3d 711b 953e
00000080: 4888 8f3d dcb6 8a3d 7c05 d63e 093d 0abe
00000090: a8ac 03bd 3d8b ddbd 9b67 bf3c 4635 a7bd
000000a0: 708f 54bc b9f6 813e 5985 4b3e 2088 6d3d
000000b0: ded4 53bd 1bd9 ea3d 6f91 03be e9e1 c8bd
000000c0: fd6b 3cbe 5690 2c3e 670d 29bd f9d7 ffbd
000000d0: 927c b4bd b6cd 743e e230 23be 4a57 8c3d
000000e0: 0616 ae3e acb6 9c3e d50a 553e be5a 02be
000000f0: 6f3b 61be 468d c8ba 68fc b33e 10ab de3d

fc2.weight f4 [32, 64]
-0.077330984 0.1194998 -0.050820597 0.048690606 0.16934703 0.21410777 0.12831646 0.2592237
0.43253976 0.14946184 0.012359305 0.07590168 0.15575384 -0.068585716 0.3072125 0.095021024
0.036006022 0.317517 0.1801013 0.094756834 0.36676064 0.30390012 0.11264349 0.3068489
-0.102751054 0.076170385 0.0152284475 0.07274906 0.15057825 0.08974593 -0.005136178 0.12883063
0.09731035 -0.09621776 0.2096028 -0.045138884 0.16387561 0.08596353 0.09263073 -0.09468658
0.3099861 -0.0047295974 0.024124578 0.10274608 0.26918167 0.18021606 0.042219337 -0.008187818
-0.06364965 0.0178593 0.091836795 -0.054904 -0.033912577 0.136883 -0.13747735 0.29397932
0.009624808 0.12696701 0.15953168 0.34622657 -0.19598286 -0.013999253 -0.040162425 -0.020122893
0.08827336 0.10013715 0.1017975 0.0021252604 0.21079502 0.027130501 0.14970885 0.2205906
0.3745124 0.06811083 -0.029190518 0.14701155 0.1816668 -0.081560485 0.19906531 0.09501835
-0.019176714 0.33043027 0.07847852 0.002858838 0.28021362 0.27855822 0.067859806 0.24254513
0.04861133 0.0314968 0.22083448 0.032721587 0.019790942 0.05316972 0.13702823 0.07181014
0.10056161 -0.03944979 0.072402716 -0.086436294 0.071712695 0.13997681 0.20340034 0.14297594
0.15394713 0.12055234 0.013677903 0.14686494 0.4117293 0.32868856 0.16726367 0.11355734
0.0051255315 0.10950651 0.017077817 0.10331942 0.0033676345 0.12392267 -0.25529522 0.1909786
0.028420981 0.04407744 0.002865774 0.16043073 -0.06666836 0.11582465 0.17882411 0.13079321
-0.038001027 -0.011810096 0.09690993 0.13570923 0.041841853 0.13519605 0.18055923 0.26114452
0.3257455 0.23322086 0.036465492 0.11411422 0.032846875 0.05978372 0.10661852 0.21687958
0.019625619 0.28817075 0.09234066 0.019093687 0.27558956 0.36486796 -0.007651341 0.07074367
-0.032889985 0.17982312 0.05619516 0.08859244 0.037600834 0.19695942 0.08700383 0.11011242
0.047067866 -0.08051691 0.09315383 -0.0500394 0.26958212 -0.055557065 0.1396291 0.14975896
0.3057794 0.09386458 -0.031672865 0.18469106 0.29637742 0.103018574 0.18369856 -0.017582048
-0.006582873 0.16459896 -0.029887978 -0.03748722 0.061411005 0.07897 -0.115813546 0.1108725
0.08949836 0.025615305 0.0023969403 0.13831158 -0.009408266 0.06146198 -0.045428377 0.15379919
0.009992061 -0.013056217 -0.1024863 -0.008011795 0.09571345 0.056179628 -0.12483011 0.09655456
-0.0124833165 0.03453957 0.065305725 0.078563936 -0.11397566 0.08624766 -0.11838845 -0.018181074
-0.114902526 -0.051162608 -0.03130019 -0.036706463 -0.03939677 -0.006039532 0.09766458 0.020824613
0.06993374 0.021323984 0.06735721 -0.035045274 -0.018228075 -0.0020759827 -0.1366463 -0.12821811
-0.0120743755 -0.07627645 -0.027022127 -0.052227747 -0.016863083 0.057154316 -0.070043586 0.07539101
-0.01066831 -0.12377312 -0.12968008 -0.12631348 -0.09290948 -0.07514889 -0.029249014 -0.051817823
-0.090075836 -0.065526105 -0.06988072 0.09306483 -0.070423745 -0.113513045 0.032995224 -0.023020087
0.06534096 0.049460806 0.088716894 -0.10904727 0.07006509 0.0775713 -0.08759401 0.08609682
00000000: b55f 9ebd 50bc f43d 4229 50bd cd6f 473d
00000010: 4f69 2d3e 113f 5b3e 6465 033e f8b8 843e
00000020: da75 dd3e 860c 193e af7e 4a3c 5772 9b3d
00000030: ef7d 1f3e ab76 8cbd f54a 9d3e 629a c23d
00000040: 0d7b 133d 9791 a23e 7a6c 383e df0f c23d
00000050: 0dc8 bb3e cc98 9b3e a1b1 e63d 4d1b 9d3e
00000060: 256f d2bd 38ff 9b3d bd80 793c 76fd 943d
00000070: 2f31 1a3e b7cc b73d 624d a8bb 2dec 033e
00000080: a64a c73d d10d c5bd 1ea2 563e 8de3 38bd
00000090: 02cf 273e a60d b03d 2eb5 bd3d 0aeb c1bd
000000a0: 80b6 9e3e bdfa 9abb e8a0 c53c 896c d23d
000000b0: 2ed2 893e 8f8a 383e 2fee 2c3d 3326 06bc
000000c0: bf5a 82bd ab4d 923c ee14 bc3d 04e3 60bd
000000d0: eae7 0abd 0f2b 0c3e ddc6 0cbe 7584 963e
000000e0: 5fb1 1d3c a403 023e 465c 233e 9c44 b13e
000000f0: bbaf 48be 1f5d 65bc 5b81 24bd c4d8 a4bc
00000100: aac8 b43d b514 cd3d 357b d03d f447 0b3b
00000110: a6da 573e c940 de3c 474d 193e 81e2 613e
00000120: 17c0 bf3e b17d 8b3d f420 efbc 328a 163e
00000130: dd06 3a3e 2f09 a7bd c7d7 4b3e fb98 c23d
00000140: 7c18 9dbc 282e a93e 59b9 a03d 585b 3b3b
00000150: 2978 8f3e 2f9f 8e3e 15fa 8a3d c05d 783e
00000160: ad1c 473d ca02 013d 6f22 623e 1207 063d
00000170: 9d20 a23c 7ec8 593d 2151 0c3e 3211 933d
00000180: 3ff3 cd3d 1a96 21bd e047 943d 8305 b1bd
00000190: 1bde 923d 1556 0f3e 2e48 503e 4968 123e
000001a0: 51a4 1d3e 25e4 f63d 4919 603c c363 163e
000001b0: 2fce d23e de49 a83e 2b47 2b3e c090 e83d
000001c0: 13f4 a73b f344 e03d c7e6 8b3c 2299 d33d
000001d0: 88b3 5c3b 2bcb fd3d 0eb6 82be e58f 433e
000001e0: 1ed3 e83c 8c8a 343d b6cf 3b3b f447 243e
000001f0: 6c89 88bd 7935 ed3d ab1d 373e a8ee 053e
00000200: f7a6 1bbd 227f 41bc b778 c63d 5cf7 0a3e
00000210: 5d62 2b3d d570 0a3e 85e4 383e bcb4 853e
00000220: 1dc8 a63e 73d1 6e3e d75c 153d b7b4 e93d
00000230: 728a 063d c6df 743d d05a da3d ae15 5e3e
00000240: e8c5 a03c 1e8b 933e 1a1d bd3d 5d6a 9c3c
00000250: 131a 8d3e f9cf ba3e 1ab8 fabb 0fe2 903d
00000260: a6b7 06bd 8d23 383e e52c 663d f46f b53d
00000270: 5503 1a3d bbaf 493e 102f b23d 9f82 e13d
00000280: 3cca 403d 0de6 a4bd 6fc7 be3d 1df6 4cbd
00000290: ab06 8a3e ce8f 63bd eefa 0e3e 6a5a 193e
000002a0: 1e8f 9c3e 133c c03d 68bb 01bd a71f 3d3e
000002b0: c8be 973e 67fb d23d 7a1b 3c3e 3a08 90bc
000002c0: 24b5 d7bb a18c 283e a2d7 f4bc 338c 19bd
000002d0: 1b8a 7b3d 06bb a13d a72f edbd 1f11 e33d
000002e0: eb4a b73d 30d7 d13c fc15 1d3b 8da1 0d3e
000002f0: 2125 1abc 8fbf 7b3d 1b13 3abd 897d 1d3e
00000300: beb5 233c bee9 55bc 56e4 d1bd e743 03bc
00000310: 6a05 c43d 9c1c 663d eea6 ffbd 66be c53d
00000320: d386 4cbc 5d79 0d3d 02bf 853d 21e6 a03d
00000330: 126c e9bd 9da2 b03d a575 f2bd 7af0 94bc
00000340: 0452 ebbd e28f 51bd a134 00bd 8459 16bd
00000350: 825e 21bd 44e7 c5bb 5e04 c83d 6198 aa3c
00000360: 6c39 8f3d a3af ae3c 94f2 893d a28b 0fbd
00000370: 0b53 95bc 360d 08bb 02ed 0bbe 9c4b 03be
00000380: 9ad3 45bc d436 9cbd 825d ddbc c3ec 55bd
00000390: 7324 8abc a51a 6a3d 0373 8fbd 9a66 9a3d
000003a0: 23ca 2ebc c37c fdbd dbca 04be 5258 01be
000003b0: 5347 bebd a9e7 99bd a19b efbc ed3e 54bd
000003c0: ae79 b8bd 8d32 86bd 9f1d 8fbd c698 be3d
000003d0: 533a 90bd 8779 e8bd 0026 073d 9f94 bcbc
000003e0: 7bd1 853d 6a97 4a3d 34b1 b53d 2d54 dfbd
000003f0: 497e 8f3d b4dd 9e3d 7d64 b3bd 8853 b03d

fc2.bias f4 [32]
0.09552028 0.03884273 -0.0026736895 0.053278524 0.090270355 0.08641703 0.013513744 -0.13319796
0.13921776 0.19842362 0.05567563 0.0074584223 -0.117089964 -0.014126887 0.059381086 -0.103149585
0.017362803 0.081373714 0.12637475 -0.0064164125 -0.107676566 -0.070679605 0.20887567 -0.010352944
0.15931307 0.054853644 0.07599265 0.05837598 -0.05823594 0.0049545923 0.046022836 -0.07754567
00000000: 23a0 c33d 8e19 1f3d 1139 2fbb 953a 5a3d
00000010: aadf b83d 69fb b03d c068 5d3c 0c65 08be
00000020: 1a8f 0e3e 902f 4b3e 210c 643d c865 f43b
00000030: ddcc efbd 7574 67bc 9539 733d 1740 d3bd
00000040: 703c 8e3c 43a7 a63d 6268 013e c540 d2bb
00000050: 8885 dcbd 78c0 90bd 81e3 553e 659f 29bc
00000060: f722 233e 37ae 603d 09a2 9b3d a71b 6f3d
00000070: cf88 6ebd 225a a23b 7182 3c3d 44d0 9ebd

fc3.weight f4 [1, 32]
-0.16619904 -0.10262173 -0.19666325 0.038172506 -0.25860617 0.07899615 0.15317762 0.013394242
-0.15487278 -0.25441527 0.063792065 0.11992441 0.13169302 -0.17615896 0.03610903 0.1511702
0.014954467 -0.19705135 -0.26352796 0.06345956 0.057156138 0.13739313 -0.21099167 0.05487377
-0.15365328 -0.15469345 0.083503015 -0.25338545 0.1158792 0.06456267 -0.20320408 0.0669051
00000000: 1530 2abe 572b d2bd 1762 49be c65a 1c3d
00000010: 0768 84be bcc8 a13d 98da 1c3e 8673 5b3c
00000020: f896 1ebe b842 82be 6aa5 823d ee9a f53d
00000030: 89da 063e 0463 34be 10e7 133d 5ccc 1a3e
00000040: 9503 753c d4c7 49be 23ed 86be 16f7 813d
00000050: 8e1c 6a3d c9b0 0c3e 330e 58be 51c3 603d
00000060: 4957 1dbe f667 1ebe a103 ab3d bdbb 81be
00000070: 1352 ed3d 6f39 843d bb14 50be 8b05 893d

exp_avg f4 [64, 14]
-8.700709e-06 -4.9855524e-05 -4.4600274e-06 -5.1694828e-05 -2.7251908e-05 -1.0215645e-05 -6.82586e-05 -8.82938e-05
-0.00010630529 5.583544e-05 3.165367e-05 -2.6295744e-05 -0.00011698175 -5.1181803e-05 0.0006812911 -0.0003576836
0.00063241884 0.001116533 0.00048475098 0.0020659177 0.001471459 0.0017143674 0.00082848506 0.0014355524
0.0004045369 0.0013985425 -0.0001926343 -0.000104540326 0.00011367689 -0.00037278273 0.00028502737 0.0004968752
0.0001683756 0.00072086597 0.00054760254 0.00079034275 0.00022859812 0.00046488224 -8.008015e-05 0.00035286133
-0.00021849832 -0.0002362118 0.00013686431 -0.00018184217 -9.219075e-05 0.0005024554 9.530407e-05 0.00064623094
0.0005481764 0.0003540123 -0.00045678177 0.00034208735 3.4376997e-05 0.0005092905 -0.0005689101 -0.00018147765
-0.00017505187 -2.7905728e-05 -6.0549924e-06 0.0005645778 -0.00011813915 0.0005555181 0.0011919742 0.00066261523
-6.6934335e-05 -0.0001589728 1.4634137e-05 0.00071957853 1.7755483e-05 -3.494847e-05 0.0004746015 -0.0005579338
0.0003794582 0.0013209368 0.00038149426 0.0015195921 0.0017636034 0.0010350682 0.00013435482 0.0013606123
0.00047672648 0.0011665865 -0.0007066771 -0.00023320598 0.00043679954 -0.00030680193 0.00029073126 0.0013919488
0.00032466295 0.0015390407 0.0012422778 0.0012146386 -2.286236e-05 0.001211301 0.00023380326 0.0011239732
-0.00068646955 -0.00028760472 0.00089517265 -0.0001433467 -0.00020114184 0.0032019138 0.000105303174 0.0026219909
0.002382376 0.0019242916 0.00049547333 0.0010167722 -0.00014140422 0.0018131152 -0.0015937904 -6.385776e-05
0.00048133332 0.0007680001 -0.0006268417 0.0036286172 0.00045054455 0.0028130154 0.004916915 0.0030551988
-0.00087841955 0.0014557486 0.0006695331 0.0027137727 -0.00018225302 2.132071e-05 0.00023265224 -0.0002101784
0.0007812384 0.0009920173 0.000775478 0.0016150464 0.0012765316 0.0021112938 0.00051417534 0.0009279549
0.00040068972 0.0013177793 -0.00026603244 -0.00035165338 -1.9461926e-05 0.00014571883 -7.1837196e-05 -0.00013434161
-5.090372e-05 -0.000211272 -0.00011757738 -0.00023363571 -7.759247e-05 -0.00014882273 6.444414e-05 -0.00010498375
3.6852885e-05 5.0705825e-05 0.000161477 -0.00014860946 0.00011107191 0.0005075621 0.00011492953 0.0005580148
0.0004401748 0.00041933195 -5.4411503e-05 0.0005011862 0.00011603095 0.00040450002 -0.00035519316 -0.00013614801
0.0002488379 0.00014355013 -0.00018176883 0.000686428 -0.00016240004 -2.691231e-05 0.00046500113 -8.411798e-05
4.1760522e-05 0.0004059628 -4.936076e-05 -5.220417e-05 -8.98585e-05 -4.0846746e-05 -0.00016587775 8.859163e-05
-0.00010431348 -0.00053566595 -0.00012552303 -0.0005705328 -0.0005233579 -0.00049271865 -5.3856216e-05 -0.00043368043
-6.807929e-05 -0.00042701396 0.00019106486 8.8798304e-05 0.0002577234 -0.00017761406 -0.00030363887 0.0006984527
-0.00027642274 0.0009072349 0.0016120273 0.00023192291 -0.00013143512 -7.321873e-06 -9.786603e-05 0.0006372507
-0.00015503741 0.00013138026 0.00041304043 -0.00027719262 0.00028990454 0.0013163923 0.00031865045 0.0014419979
0.0011813528 0.0011532038 -5.0081376e-06 0.0011352889 0.00022902372 0.0010595174 -0.0006151064 -0.0002622136
0.0004276115 -0.00024472526 0.0002783932 0.0011890386 0.00033427557 0.001355791 0.0011511039 0.0010650661
2.9501072e-05 0.0010290159 0.00023453387 0.0009831947 -0.00050633325 -0.00017664333 0.0016649142 0.00027239037
0.0010163601 0.0041858065 0.0015478283 0.004260672 0.004482255 0.0043358686 0.0010974921 0.003383688
0.0015126636 0.0037606016 -0.00090526725 -0.00044889317 0.00051657 -0.00039356734 0.00034932632 0.0016339901
00000000: 43f9 11b7 f61b 51b8 58a7 95b6 e6d2 58b8
00000010: 079b e4b7 dc63 2bb7 0f26 8fb8 5f2a b9b8
00000020: 38f0 deb8 d930 6a38 dfc3 0438 ae95 dcb7
00000030: 1954 f5b8 0bac 56b8 ac98 323a 7b87 bbb9
00000040: e9c8 253a a158 923a 2d26 fe39 5964 073b
00000050: f9dd c03a a0b4 e03a b12e 593a 2529 bc3a
00000060: 0618 d439 4d4f b73a e0fd 49b9 a93c dbb8
00000070: d165 ee38 0d72 c3b9 ba6f 9539 bb40 023a
00000080: fb8d 3039 7ff8 3c3a fc8c 0f3a 012f 4f3a
00000090: d7b3 6f39 70bb f339 b4f0 a7b8 3f00 b939
000000a0: b21c 65b9 9faf 77b9 3c83 0f39 e3ac 3eb9
000000b0: 8856 c1b8 36b7 033a fcdd c738 d367 293a
000000c0: 7fb3 0f3a ba9a b939 367c efb9 305a b339
000000d0: 0530 1038 e881 053a e922 15ba 094b 3eb9
000000e0: 218e 37b9 1817 eab7 fd2b cbb6 2d00 143a
000000f0: 79c1 f7b8 30a0 113a 043c 9c3a 5bb3 2d3a
00000100: 195f 8cb8 f0b1 26b9 2485 7537 19a2 3c3a
00000110: 9cf1 9437 a295 12b8 efd3 f839 4e42 12ba
00000120: 04f2 c639 4923 ad3a 4b03 c839 0d2d c73a
00000130: b628 e73a 20ab 873a 99e1 0c39 9356 b23a
00000140: 25f1 f939 26e8 983a 4c40 39ba c188 74b9
00000150: 3e02 e539 42da a0b9 4a6d 9839 0d72 b63a
00000160: 8637 aa39 a3b9 c93a edd3 a23a 8234 9f3a
00000170: 8bc8 bfb7 84c4 9e3a 1629 7539 4852 933a
00000180: 31f4 33ba a7c9 96b9 05aa 6a3a 564f 16b9
00000190: 9ae9 52b9 33d7 513b 36d6 dc38 b5d5 2b3b
000001a0: a321 1c3b 8338 fc3a a7e2 013a 3745 853a
000001b0: e845 14b9 0da6 ed3a bbe6 d0ba 60eb 85b8
000001c0: 775b fc39 9d53 493a a252 24ba 18ce 6d3b
000001d0: 1137 ec39 915a 383b 131e a13b bb39 483b
000001e0: bd45 66ba d1ce be3a 9b83 2f3a 8dd9 313b
000001f0: 2c1b 3fb9 e0d9 b237 1cf4 7339 5663 5cb9
00000200: 06cc 4c3a 9406 823a 7349 4b3a f7af d33a
00000210: 4b51 a73a a25d 0a3b b9c9 063a 0042 733a
00000220: aa13 d239 56b9 ac3a 457a 8bb9 1e5e b8b9
00000230: 2b42 a3b7 1acc 1839 4da7 96b8 0dde 0cb9
00000240: 7481 55b8 e588 5db9 e093 f6b8 1cfc 74b9
00000250: 24b9 a2b8 4c0d 1cb9 2f26 8738 b92a dcb8
00000260: 7c92 1a38 f7ac 5438 2752 2939 0cd4 1bb9
00000270: 47ef e838 ea0d 053a 5206 f138 bd47 123a
00000280: 43c7 e639 c8d9 db39 e837 64b8 0962 033a
00000290: a455 f338 1313 d439 3839 bab9 f4c2 0eb9
000002a0: 7576 8239 f285 1639 3399 3eb9 67f1 333a
000002b0: ee49 2ab9 bfc1 e1b7 65cb f339 7f68 b0b8
000002c0: 0528 2f38 68d7 d439 b608 4fb8 cdf5 5ab8
000002d0: 6a72 bcb8 dc52 2bb8 78ef 2db9 45ca b938
000002e0: e0c2 dab8 ef6b 0cba d59e 03b9 cf8f 15ba
000002f0: f431 09ba ca29 01ba ace3 61b8 9a5f e3b9
00000300: cac5 8eb8 d8e0 dfb9 9558 4839 3a39 ba38
00000310: 0d1f 8739 e93d 3ab9 b831 9fb9 5e18 373a
00000320: d5ec 90b9 81d3 6d3a a94a d33a 5530 7339
00000330: d9d1 09b9 69ae f5b6 6d3d cdb8 2c0d 273a
00000340: 8a91 22b9 1fc3 0939 598d d839 2a54 91b9
00000350: 54fe 9739 cc8a ac3a 8a10 a739 6c01 bd3a
00000360: 9fd7 9a3a 1927 973a 930b a8b6 f9cd 943a
00000370: 1626 7039 81df 8a3a 173f 21ba b779 89b9
00000380: 0b31 e039 784e 80b9 4ef5 9139 84d9 9b3a
00000390: b541 af39 ccb4 b13a a3e0 963a b099 8b3a
000003a0: 1279 f737 0be0 863a 35ed 7539 8ade 803a
000003b0: 73bb 04ba 5539 39b9 4039 da3a 9ecf 8e39
000003c0: 6337 853a 1729 893b 80e0 ca3a 1b9d 8b3b
000003d0: e1df 923b e713 8e3b b9d9 8f3a ddc0 5d3b
000003e0: 9144 c63a 6d74 763b 754f 6dba 6c59 ebb9
000003f0: 6d6a 073a b757 ceb9 c925 b739 9c2b d63a

exp_avg_sq f4 [64, 14]
7.631618e-08 1.8311155e-07 1.3769049e-07 1.4216492e-07 1.6860464e-07 1.2873171e-07 5.778726e-07 3.368535e-07
1.6572578e-07 8.0695195e-08 1.6094663e-07 1.6729537e-07 3.9880385e-07 4.337328e-08 1.5986182e-06 1.8328373e-06
3.4795742e-06 2.7109213e-06 1.7320124e-06 3.2250132e-06 5.0013973e-06 4.381852e-06 1.8954901e-06 2.6981052e-06
9.227558e-07 1.3620836e-06 3.2049938e-06 2.1896085e-07 1.0938717e-06 1.982246e-06 2.444451e-06 1.5531946e-06
2.8134712e-06 2.0028374e-06 6.2444815e-06 5.118252e-06 2.3961152e-06 1.3503819e-06 1.9750853e-06 2.016167e-06
4.5794395e-06 6.3461016e-07 1.1794914e-06 3.271078e-06 2.5538855e-06 2.1709166e-06 3.2739072e-06 2.2782372e-06
8.321204e-06 5.106956e-06 2.8843947e-06 1.2825799e-06 2.5428865e-06 2.8598079e-06 4.901517e-06 1.1165397e-06
9.466658e-07 2.3754742e-06 2.7041262e-06 6.6351214e-07 2.4416584e-06 1.1376981e-06 7.816197e-06 3.584891e-06
2.2044242e-06 9.648429e-07 2.7318724e-06 2.1322485e-06 2.4465874e-06 5.0819995e-07 3.3012193e-06 6.7028045e-06
5.525775e-06 4.839737e-06 6.1445503e-06 4.5371353e-06 1.6396833e-05 1.1894734e-05 7.0258898e-06 3.5371427e-06
5.562066e-06 5.538042e-06 1.0306729e-05 1.839929e-06 3.0300118e-06 6.7584065e-06 5.4131347e-06 5.653628e-06
6.692428e-06 5.3070285e-06 1.7756762e-05 1.2037085e-05 7.2358657e-06 3.3961367e-06 5.971845e-06 6.160494e-06
1.0512545e-05 2.1647245e-06 7.1115373e-06 1.5374175e-05 1.4970883e-05 1.815072e-05 2.1026082e-05 1.5084256e-05
5.7183468e-05 2.9957804e-05 1.6165752e-05 1.019217e-05 1.5609337e-05 1.7007524e-05 4.0780724e-05 7.498163e-06
1.8669078e-05 3.9545186e-05 2.8814628e-05 3.335143e-05 5.4959903e-05 1.9178893e-05 0.00012434092 6.88634e-05
3.8979575e-05 1.9099889e-05 3.656321e-05 3.8356608e-05 5.181848e-05 1.1303053e-05 1.8424075e-06 4.3073637e-06
5.8508663e-06 4.006258e-06 7.326354e-06 4.650976e-06 1.1018075e-05 1.0826557e-05 4.86628e-06 2.2340746e-06
3.0134672e-06 3.5644996e-06 8.548096e-06 1.3277435e-06 1.3702044e-07 2.5417057e-07 2.998045e-07 1.9895288e-07
3.017493e-07 2.417e-07 9.603945e-07 6.7322316e-07 3.0478202e-07 1.2227734e-07 2.6779253e-07 2.570569e-07
5.5585156e-07 7.4928806e-08 7.5073734e-07 1.6220746e-06 1.3162868e-06 1.3443514e-06 1.6352718e-06 1.2144307e-06
4.5640104e-06 2.9969988e-06 1.7280901e-06 7.4412924e-07 1.4618885e-06 1.4743435e-06 2.5846307e-06 5.0571776e-07
1.4991818e-06 2.0556388e-06 2.0393932e-06 2.1380845e-06 4.0122927e-06 2.3274679e-06 7.929415e-06 4.832094e-06
1.2678023e-06 2.0472487e-06 3.4420943e-06 2.2424988e-06 6.3379475e-06 1.3462344e-06 3.1899052e-07 7.0808017e-07
5.786409e-07 6.4668075e-07 7.6383196e-07 5.538343e-07 1.7876813e-06 1.2342023e-06 7.924414e-07 3.682231e-07
6.5183946e-07 6.988368e-07 1.0819244e-06 2.3583017e-07 1.93589e-06 4.754608e-06 3.8111632e-06 4.4702483e-06
2.4788515e-06 3.5666949e-06 1.6118976e-05 8.8309835e-06 3.13011e-06 1.9675329e-06 2.5512284e-06 2.6936593e-06
6.315148e-06 1.9672327e-06 2.2303575e-06 4.9071705e-06 3.8289513e-06 4.1522303e-06 4.900693e-06 3.820185e-06
1.2342053e-05 8.426886e-06 5.3725716e-06 2.4117544e-06 4.379689e-06 4.537823e-06 7.088406e-06 1.6038288e-06
1.8877612e-06 4.787462e-06 3.7339644e-06 3.884003e-06 4.5714305e-06 3.5253897e-06 1.2373312e-05 8.535258e-06
4.918339e-06 2.336302e-06 4.1838425e-06 4.2634774e-06 7.4299546e-06 1.3430604e-06 8.873257e-06 2.1817883e-05
2.6668371e-05 1.7605606e-05 2.9793722e-05 2.1635497e-05 7.212367e-05 4.282013e-05 1.9961373e-05 1.577517e-05
2.3691568e-05 2.8617442e-05 4.4906323e-05 6.186653e-06 4.6749396e-06 1.07167825e-05 8.448314e-06 8.566586e-06
00000000: 43e3 a333 529d 4434 13d8 1334 ffa5 1834
00000010: b109 3534 8139 0a34 1a1f 1b35 cbd8 b434
00000020: 5bf2 3134 a74a ad33 acd0 2c34 cda1 3334
00000030: 2f1b d634 6d49 3a33 1a90 d635 cfff f535
00000040: a182 6936 46ed 3536 7e77 e835 4e6d 5836
00000050: add1 a736 d207 9336 8b68 fe35 1811 3536
00000060: 4cb3 7735 d6d0 b635 6015 5736 801b 6b34
00000070: 25d1 9235 ba06 0536 590b 2436 5c77 d035
00000080: 11cf 3c36 7c68 0636 b087 d136 73bd ab36
00000090: f2cc 2036 c53e b535 b58b 0436 7c4d 0736
000000a0: 16a9 9936 145a 2a35 044f 9e35 b184 5b36
000000b0: 6b63 2b36 10b0 1136 4cb5 5b36 d1e3 1836
000000c0: 4d9b 0b37 6b5c ab36 8691 4136 1c25 ac35
000000d0: 75a6 2a36 20eb 3f36 b677 a436 03dc 9535
000000e0: 611e 7e35 566a 1f36 8978 3536 351c 3235
000000f0: 5fdb 2336 02b3 9835 4f22 0337 f593 7036
00000100: b8ef 1336 c07f 8135 3655 3736 c017 0f36
00000110: 0d30 2436 3c6b 0835 848a 5d36 a7e8 e036
00000120: 0c6a b936 0665 a236 492d ce36 b23d 9836
00000130: ee8b 8937 7e8f 4737 efbf eb36 a65f 6d36
00000140: c8a1 ba36 6bd3 b936 10eb 2c37 7bf3 f635
00000150: 3557 4b36 45c6 e236 79a2 b536 4bb4 bd36
00000160: 858f e036 0713 b236 5bf4 9437 e3f2 4937
00000170: 9dcb f236 2fe9 6336 c261 c836 3eb6 ce36
00000180: 095f 3037 af45 1136 a49f ee36 caf7 8037
00000190: 742b 7b37 6042 9837 2b61 b037 6312 7d37
000001a0: 48d8 6f38 e54d fb37 b09b 8737 09ff 2a37
000001b0: ccf0 8237 61ab 8e37 f80b 2b38 bb98 fb36
000001c0: 8a9b 9c37 52dd 2538 f1b6 f137 d3e2 0b38
000001d0: bf84 6638 5ce2 a037 8361 0239 c26a 9038
000001e0: 007e 2338 b338 a037 735b 1938 18e1 2038
000001f0: ab57 5938 3ea2 3d37 a448 f735 f987 9036
00000200: 8f52 c436 7f6d 8636 e7d4 f536 940f 9c36
00000210: 46da 3837 b5a3 3537 0749 a336 1ced 1536
00000220: f93a 4a36 a335 6f36 cb69 0f37 eb34 b235
00000230: e41f 1334 f074 8834 d1f4 a034 c09f 5534
00000240: 1c00 a234 ffc2 8134 e7e6 8035 8bb7 3435
00000250: eca0 a334 574b 0334 20c5 8f34 a201 8a34
00000260: d435 1535 8ce8 a033 4786 4935 0fb6 d935
00000270: 45ab b035 906f b435 837b db35 85ff a235
00000280: 8d24 9936 0c20 4936 b9f0 e735 2cc0 4735
00000290: 1b36 c435 0fe2 c535 9e73 2d36 a9c0 0735
000002a0: 7f37 c935 9bf3 0936 82dc 0836 037c 0f36
000002b0: 55a1 8636 9831 1c36 9408 0537 5f23 a236
000002c0: 5b29 aa35 7763 0936 bbfe 6636 d67d 1636
000002d0: 8eaa d436 43b0 b435 b941 ab34 e612 3e35
000002e0: e653 1b35 9097 2d35 220a 4d35 34ab 1435
000002f0: 43f0 ef35 dea6 a535 29b8 5435 33b0 c534
00000300: 11fa 2e35 b397 3b35 a436 9135 8138 7d34
00000310: 56ea 0136 c689 9f36 49c3 7f36 24ff 9536
00000320: 585a 2636 5a5b 6f36 3d37 8737 c928 1437
00000330: e10e 5236 f509 0436 c535 2b36 b7c4 3436
00000340: b5e6 d336 cd04 0436 40ad 1536 46a8 a436
00000350: 717a 8036 6353 8b36 a270 a436 242f 8036
00000360: b710 4f37 3361 0d37 0a46 b436 a0d9 2136
00000370: 3ef5 9236 9a43 9836 f2d8 ed36 2343 d735
00000380: fb5e fd35 fca3 a036 0595 7a36 5553 8236
00000390: 4a64 9936 bc95 6c36 f896 4f37 a732 0f37
000003a0: 3608 a536 5dc9 1c36 ef62 8c36 fe0e 8f36
000003b0: d34e f936 3443 b435 59de 1437 8c05 b737
000003c0: e4b5 df37 c0af 9337 88ed f937 e07d b537
000003d0: 1a41 9738 c499 3338 b972 a737 eb54 8437
000003e0: 41bd c637 7d0f f037 cc59 3c38 f296 cf36
000003f0: 6ddd 9c36 3bcc 3337 3bbd 0d37 35b9 0f37

exp_avg f4 [64]
-0.00010825204 0.0020032462 0.00059776276 0.0006975804 0.0014205507 0.0022762187 0.0021047876 0.0044130203
0.0066905436 0.0024056018 -0.00016575733 0.0007325436 0.0008930017 -0.0008602441 0.0015762106 0.0020009843
0.0018882924 0.0068431464 0.002439784 -0.00010895114 0.00526144 0.008219372 0.00043327129 0.0014264495
0.0 0.002125799 0.00029676402 0.0013155129 0.0027373822 0.0028475442 0.00042045684 0.001698818
0.0027000692 0.00017221265 0.0019245719 -0.00012025758 0.0002791505 0.0010722927 0.0015710822 1.4640163e-05
-3.131558e-05 0.0012052812 0.0012124655 0.00090695993 0.0037717482 0.0035832678 1.6058157e-05 1.6145534e-06
8.695148e-05 0.002037977 0.000748844 0.00050522515 0.00022637821 0.0014805319 -0.0010724457 0.0010594436
0.0020787446 0.0014105736 0.000959339 0.0029355853 5.2615145e-05 0.00078462844 0.0010247476 0.0011272037
00000000: 5f05 e3b8 e548 033b 2eb3 1c3a d4dd 363a
00000010: c631 ba3a 9d2c 153b 7af0 093b 199b 903b
00000020: 593c db3b 4da7 1d3b 25cf 2db9 2b08 403a
00000030: 5418 6a3a 0182 61ba da98 ce3a f222 033b
00000040: 9480 f73a 793c e03b c8e4 1f3b b37c e4b8
00000050: 2868 ac3b 8baa 063c b028 e339 b4f7 ba3a
00000060: 0000 0000 fd50 0b3b fe96 9b39 4a6d ac3a
00000070: a765 333b dd9d 3a3b c370 dc39 e0aa de3a
00000080: a5f3 303b fb93 3439 eb41 fc3a cc32 fcb8
00000090: f25a 9239 2c8c 8c3a c5ec cd3a 059f 7537
000000a0: d958 03b8 87fa 9d3a 97eb 9e3a 0dc1 6d3a
000000b0: 6f2f 773b 42d5 6a3b a1b4 8637 a2b3 d835
000000c0: b859 b638 958f 053b 124e 443a 1671 043a
000000d0: f05f 6d39 680e c23a 4e91 8cba 07dd 8a3a
000000e0: 8c3b 083b ffe2 b83a 277c 7b3a f362 403b
000000f0: 15af 5c38 86af 4d3a d350 863a aebe 933a

exp_avg_sq f4 [64]
8.398635e-07 7.232984e-06 8.610087e-06 9.901611e-06 8.814166e-06 2.0551086e-05 2.2612143e-05 6.5806424e-05
0.0001416761 1.5152399e-05 1.1793479e-06 5.7709335e-06 1.0053348e-05 2.203712e-06 1.6311824e-05 1.5188488e-05
1.61576e-05 8.800914e-05 3.7846028e-05 1.1896891e-06 4.9828705e-05 0.000114441085 6.982537e-07 3.2115073e-05
2.9441792e-12 9.745883e-06 8.601731e-06 7.3424562e-06 3.8662132e-05 2.080658e-05 1.7767557e-06 1.4244964e-05
7.59756e-06 3.5285918e-06 2.0625364e-05 2.9155564e-07 1.2860188e-05 1.7352404e-06 1.867124e-05 6.4178124e-07
5.818391e-06 9.434042e-06 9.113947e-06 1.558905e-05 1.04053115e-05 4.563689e-05 4.1194252e-07 1.5462135e-07
8.17852e-07 2.4952122e-05 7.0182255e-06 3.4954837e-06 3.8846892e-06 8.232808e-06 6.239085e-07 1.8970426e-05
2.6275839e-05 1.6961003e-05 3.963017e-06 1.5964897e-05 9.658498e-08 6.1310793e-06 5.841579e-06 1.07456435e-05
00000000: fb72 6135 dcb2 f236 0b74 1037 181f 2637
00000010: 8ee0 1337 1f65 ac37 35af bd37 8e01 8a38
00000020: e38e 1439 0f37 7e37 164a 9e35 f1a3 c136
00000030: cdaa 2837 7ce3 1336 60d5 8837 0fd2 7e37
00000040: 2f8a 8737 8c91 b838 ddbc 1e38 68ad 9f35
00000050: 2aff 5038 1700 f038 a16f 3b35 4cb3 0638
00000060: 9e2d 4f2c 4082 2337 2750 1037 385f f636
00000070: 2629 2238 ca89 ae37 dc78 ee35 a8fd 6e37
00000080: 8bee fe36 bfcc 6c36 a204 ad37 1a87 9c34
00000090: 16c2 5737 68e6 e835 2fa0 9c37 df46 2c35
000000a0: 993b c336 e746 1e37 1be8 1837 3bc5 8237
000000b0: 7992 2e37 3d6a 3f38 f328 dd34 fe05 2634
000000c0: 5d8a 5b35 4650 d137 197e eb36 f493 6a36
000000d0: 3a59 8236 a41f 0a37 aa7a 2735 ae22 9f37
000000e0: ef6a dc37 7a47 8e37 0ffa 8436 5bec 8537
000000f0: 276a cf33 92b9 cd36 c802 c436 3048 3437

exp_avg f4 [32, 64]
0.00011735521 0.00024554142 0.000384286 0.00020444294 8.106491e-05 5.8842365e-05 0.00047384578 0.0003103593
0.0003126228 0.00045945385 0.00020919126 0.0004134983 8.378311e-05 0.0002927136 0.00020900826 0.0007574456
0.00051999686 0.0005627238 6.5694476e-05 1.500996e-05 0.00025576906 0.0006309492 0.00039101558 -6.5549444e-05
0.0 0.00047823635 0.00012998756 0.00058495364 0.00067230576 0.0003704845 0.0003692961 0.00065112184
0.00032525285 0.00054581213 0.00027134988 1.0647157e-05 4.5743836e-06 0.000204821 -1.8640849e-05 -0.00010588013
-1.6331964e-05 0.00074267073 0.00016243717 0.0002872607 7.458526e-05 6.0369643e-05 1.3504732e-05 1.8321167e-05
0.00010109726 0.0009463303 0.00018027803 -5.9326416e-05 0.0003029209 3.2675725e-05 0.00019151346 -2.0695918e-05
0.0006139583 0.00047327686 0.00046797263 0.00024370871 -2.9286673e-06 0.00028663847 0.00059675105 9.892025e-05
7.2960116e-05 0.00015182038 0.00023763331 0.00012659733 5.0281502e-05 3.654538e-05 0.00029337103 0.00019225232
0.00019354242 0.00028417972 0.00012943885 0.00025614238 5.195249e-05 0.00018122028 0.00012929788 0.00046862022
0.00032184183 0.00034808888 4.1221138e-05 9.371007e-06 0.00015817943 0.00039034084 0.00024176482 -4.0461815e-05
0.0 0.0002958417 8.043253e-05 0.0003617849 0.0004159995 0.00022923991 0.0002286257 0.00040287917
0.00020110777 0.00033776963 0.00016829767 6.635504e-06 2.8568334e-06 0.0001267435 -1.1437611e-05 -6.539267e-05
-1.0081339e-05 0.00045960527 0.00010059265 0.00017780351 4.614415e-05 3.752265e-05 8.362487e-06 1.1350464e-05
6.2539126e-05 0.00058536977 0.00011162064 -3.664622e-05 0.00018735623 2.0477386e-05 0.00011847378 -1.2769932e-05
0.0003797527 0.00029290482 0.00028937202 0.00015066288 -1.8109175e-06 0.0001775685 0.0003694889 6.148185e-05
0.00013877942 0.0002898134 0.0004541318 0.00024181494 9.536235e-05 6.9335176e-05 0.00055895385 0.00036527528
0.00036854926 0.00054237136 0.0002470061 0.00048798288 9.850121e-05 0.00034608904 0.00024649463 0.00089473114
0.0006142783 0.0006642839 7.708802e-05 1.7564873e-05 0.0003022269 0.00074453786 0.00046181402 -7.755625e-05
0.0 0.000564271 0.00015339219 0.0006912301 0.0007937474 0.00043753226 0.00043581918 0.0007691772
0.00038405284 0.0006446634 0.00031971166 1.248628e-05 5.2328237e-06 0.0002415265 -2.1767537e-05 -0.00012491886
-1.9284109e-05 0.000876535 0.00019155054 0.00033946164 8.8018474e-05 7.073196e-05 1.5899403e-05 2.1568416e-05
0.000119492055 0.0011184906 0.00021292109 -6.947495e-05 0.0003581245 3.8601065e-05 0.0002258547 -2.4467241e-05
0.00072487595 0.0005586045 0.0005529657 0.00028813691 -3.451416e-06 0.0003389006 0.00070392154 0.00011693535
1.1354671e-10 3.5885236e-11 1.9425468e-11 6.594222e-11 5.0798726e-11 1.3077006e-10 2.0529824e-10 4.0561672e-11
1.5817098e-12 2.0449399e-11 1.01055775e-10 1.197559e-10 0.0 6.300007e-11 2.0974127e-19 1.1789163e-10
7.0120236e-11 1.0263332e-11 7.818711e-11 1.0827896e-12 0.0 1.0851578e-11 7.5579064e-11 2.6219867e-11
0.0 9.0886666e-11 6.8619385e-12 3.0683203e-11 1.4202779e-10 2.4639514e-11 1.4571863e-11 1.2946975e-11
1.429203e-11 1.2518497e-10 1.43404524e-11 4.3721944e-26 3.3115975e-11 8.7133405e-11 2.1405188e-11 1.5466012e-11
1.0926385e-24 1.2089142e-10 3.4370926e-11 4.0130437e-11 7.387295e-12 2.97237e-11 4.0268275e-12 0.0
1.9670612e-20 9.326754e-12 1.0195823e-25 5.917047e-11 7.340391e-12 4.3262676e-12 0.0 0.0
7.261257e-11 7.166069e-11 4.393759e-11 7.942871e-12 0.0 1.6729444e-10 9.85121e-11 5.9805313e-11
00000000: 991c f638 03bc 8039 fe79 c939 bc5f 5639
00000010: 6401 aa38 82cd 7638 816e f839 b8b7 a239
00000020: 86e7 a339 dae2 f039 5a5a 5b39 cdca d839
00000030: b7b4 af38 5b77 9939 3a29 5b39 508f 463a
00000040: 6650 083a c183 133a 74c5 8938 4ad3 7b37
00000050: be18 8639 4966 253a 3901 cd39 9777 89b8
00000060: 0000 0000 ccbb fa39 454d 0839 9357 193a
00000070: ad3d 303a 963d c239 159e c139 0cb0 2a3a
00000080: b386 aa39 d514 0f3a f743 8e39 31a1 3237
00000090: a87d 9936 38c5 5639 eb5e 9cb7 f60b deb8
000000a0: a000 89b7 caaf 423a e553 2a39 7a9b 9639
000000b0: a86a 9c38 6935 7d38 6292 6237 68b0 9937
000000c0: 2e04 d438 2713 783a 0409 3d39 41d5 78b8
000000d0: 5bd1 9e39 4b0d 0938 01d1 4839 259c adb7
000000e0: 0bf2 203a 2522 f839 395a f539 0f8c 7f39
000000f0: 1f8a 44b6 f747 9639 496f 1c3a 6873 cf38
00000100: 2a02 9938 f931 1f39 352d 7939 36bf 0439
00000110: 5ae5 5238 4e48 1938 98cf 9939 5797 4939
00000120: a6f1 4a39 f5fd 9439 fab9 0739 d94a 8639
00000130: 90e7 5938 f305 3e39 2394 0739 24b1 f539
00000140: e1bc a839 b37f b639 dce4 2c38 2b38 1d37
00000150: f8dc 2539 a9a6 cc39 4082 7d39 8bb5 29b8
00000160: 0000 0000 331b 9b39 e3ad a838 f3ad bd39
00000170: 821a da39 1f60 7039 3ebb 6f39 8739 d339
00000180: 75e0 5239 ac16 b139 1079 3039 8ca6 de36
00000190: 06b8 3f36 73e6 0439 2ae4 3fb7 6c23 89b8
000001a0: 0523 29b7 2df7 f039 45f5 d238 c470 3a39
000001b0: e78a 4138 a361 1d38 9c4c 0c37 df6d 3e37
000001c0: 7027 8338 8073 193a e015 ea38 94b4 19b8
000001d0: 0e75 4439 dac6 ab37 2075 f838 713e 56b7
000001e0: 8b19 c739 0591 9939 dbb6 9739 42fb 1d39
000001f0: a70e f3b5 ae31 3a39 f6b7 c139 d1ef 8038
00000200: 5185 1139 19f2 9739 8a18 ee39 b48f 7d39
00000210: 46fd c738 0a68 9138 c286 123a 6b82 bf39
00000220: d839 c139 ed2d 0e3a 9980 8139 f4d7 ff39
00000230: 6f92 ce38 4973 b539 f33b 8139 648c 6a3a
00000240: 8507 213a 5723 2e3a 51aa a138 4758 9337
00000250: 3574 9e39 172d 433a a11f f239 b2a5 a2b8
00000260: 0000 0000 96eb 133a e7d7 2039 ab33 353a
00000270: 7c13 503a 9664 e539 a97e e439 9ca2 493a
00000280: b35a c939 a1fe 283a f99e a739 2a7c 5137
00000290: 9d95 af36 4742 7d39 6e99 b6b7 a7fc 02b9
000002a0: 4fc4 a1b7 45c7 653a f5da 4839 c5f9 b139
000002b0: 8f96 b838 ef55 9438 b55f 8537 d2ed b437
000002c0: cf97 fa38 519a 923a 9243 5f39 14b3 91b8
000002d0: a8c2 bb39 94e7 2138 69d3 6c39 003f cdb7
000002e0: 9a05 3e3a 506f 123a e6f4 103a 1511 9739
000002f0: e09e 67b6 78ae b139 6087 383a 303b f538
00000300: 1db1 f92e 2fd3 1d2e 44de aa2d 2b02 912e
00000310: 486a 5f2e 80c8 0f2f 51ba 612f 6264 322e
00000320: 1a9b de2b f4df b32d 5839 de2e 4aac 032f
00000330: 0000 0000 e389 8a2e 699e 7720 8b9f 012f
00000340: 2f32 9a2e f08d 342d 6eef ab2e 9b63 982b
00000350: 0000 0000 2ae7 3e2d 3b33 a62e e4a1 e62d
00000360: 0000 0000 a5dc c72e d96e f12c 37f2 062e
00000370: 4529 1c2f 41bb d82d eb2c 802d fec3 632d
00000380: 956d 7b2d 70a4 092f a847 7c2d 2680 5815
00000390: 46a5 112e bf9b bf2e 3348 bc2d 5d0a 882d
000003a0: df13 a917 e9eb 042f 392a 172e db7e 302e
000003b0: 6bf5 012d e9b9 022e 70ae 8d2c 0000 0000
000003c0: 9fc8 b91e f713 242d b56f fc15 031e 822e
000003d0: 2f22 012d 8e37 982c 0000 0000 0000 0000
000003e0: 3ead 9f2e 6295 9d2e 543d 412e 83bb 0b2d
000003f0: 0000 0000 33f1 372f 62a1 d82e 6683 832e

exp_avg_sq f4 [32, 64]
3.314127e-06 8.145394e-08 7.518849e-07 1.1044926e-06 1.5059689e-07 1.155451e-06 2.9967614e-06 6.448319e-07
1.7017759e-07 3.8399298e-07 7.558293e-07 2.3049308e-06 1.2642307e-07 9.30425e-07 7.879903e-08 2.2828372e-06
2.5824702e-06 4.479077e-07 3.9028564e-06 1.7406249e-07 1.7060272e-07 4.3188334e-07 2.943087e-07 2.686715e-07
4.4849798e-14 7.2185594e-07 3.284577e-07 1.4195714e-06 1.9866004e-06 5.64981e-07 4.6524107e-07 2.1545563e-06
2.6805822e-07 2.5388606e-06 2.0395942e-06 3.124766e-08 8.0261806e-08 1.45334e-07 1.011152e-06 3.802553e-07
1.1417678e-08 1.4222786e-06 2.3341448e-07 1.6657228e-06 6.3101715e-09 2.4054256e-07 1.3779747e-08 1.825127e-08
9.381035e-08 3.4440661e-06 5.7151647e-07 7.079923e-07 1.269254e-06 1.2380162e-06 1.4836352e-08 3.8659675e-08
1.2067379e-06 1.2289731e-06 5.3555027e-07 5.8266718e-08 3.6847478e-09 3.2593732e-06 2.2323293e-06 2.0749046e-06
1.3708167e-06 3.360442e-08 3.160269e-07 4.5141434e-07 6.2245604e-08 4.7435498e-07 1.254048e-06 2.5398137e-07
6.5935225e-08 1.507283e-07 3.041637e-07 9.4086766e-07 5.2139153e-08 3.6099865e-07 3.1831803e-08 9.418022e-07
1.0694525e-06 1.7782433e-07 1.6175853e-06 7.004828e-08 6.543813e-08 1.6984977e-07 1.2729342e-07 1.04997696e-07
2.3234674e-14 2.9717017e-07 1.4214041e-07 5.9004486e-07 8.2846765e-07 2.2946391e-07 1.8408113e-07 8.864599e-07
1.0961815e-07 1.0357988e-06 8.476925e-07 1.3973613e-08 3.274535e-08 6.14507e-08 4.2522436e-07 1.5963163e-07
4.466137e-09 5.8093605e-07 9.9389716e-08 6.7624336e-07 2.4808535e-09 9.4526506e-08 5.9435266e-09 7.407225e-09
3.8378722e-08 1.4206151e-06 2.3025999e-07 2.906812e-07 5.1505594e-07 5.064046e-07 5.6428724e-09 1.518934e-08
4.95825e-07 4.9646883e-07 2.3233027e-07 2.2672026e-08 1.4095437e-09 1.3513811e-06 9.304495e-07 8.7611147e-07
6.3147277e-06 1.3560155e-07 1.5631936e-06 1.9965235e-06 3.0139384e-07 2.1419512e-06 6.3029147e-06 9.88722e-07
2.5323206e-07 6.172316e-07 1.2470521e-06 4.1216836e-06 2.0699999e-07 1.3918869e-06 1.2430336e-07 4.3504892e-06
5.0729604e-06 6.9974317e-07 7.9205165e-06 3.5691733e-07 2.5095255e-07 6.5922427e-07 7.4916665e-07 4.0661135e-07
2.3969634e-13 1.2726666e-06 6.751721e-07 2.7980857e-06 3.9608713e-06 9.541399e-07 7.1298996e-07 4.0565124e-06
4.492451e-07 4.6829105e-06 3.96296e-06 1.1715755e-07 1.2923225e-07 2.6840146e-07 2.066879e-06 7.695685e-07
1.7311491e-08 2.4694516e-06 4.094852e-07 3.0495346e-06 9.616084e-09 3.6561354e-07 3.0975627e-08 3.258012e-08
1.5377493e-07 6.843431e-06 9.3845404e-07 1.2993988e-06 2.2372228e-06 2.487413e-06 2.1122295e-08 5.8991816e-08
2.174345e-06 2.0384878e-06 1.544572e-06 8.727844e-08 5.3270193e-09 6.432166e-06 4.2807446e-06 4.2950983e-06
1.08472555e-07 1.7325487e-10 2.23909e-08 2.1298986e-08 1.8550965e-08 2.2113854e-08 1.3808173e-07 6.8606937e-10
1.2763448e-12 7.106067e-09 3.8906087e-09 4.7260286e-08 1.4716084e-11 1.9698514e-09 2.020557e-11 5.0837397e-08
8.2764195e-08 2.1911435e-10 1.4307766e-07 1.3945494e-08 8.535319e-12 1.6078582e-10 6.26802e-08 8.56396e-12
0.0 1.5005382e-08 4.5121755e-09 3.676759e-08 6.07861e-08 2.5149902e-09 3.1276766e-11 4.208121e-08
8.027939e-10 5.3256652e-08 4.8846903e-08 1.630093e-08 3.0189656e-11 1.08794245e-08 2.7025768e-08 2.7183459e-08
3.209221e-13 1.495864e-08 5.532619e-10 2.06509e-08 2.4525422e-15 7.770138e-11 2.5068507e-09 2.0828095e-09
1.1468722e-10 9.586412e-08 5.3808635e-10 9.675574e-09 1.1795066e-08 8.275502e-08 2.2866758e-12 1.8700451e-12
1.9305402e-08 7.3584854e-09 1.2640766e-07 7.7045206e-13 2.383486e-12 1.3843824e-07 7.604787e-08 9.0875275e-08
00000000: 4568 5e36 c7eb ae33 23d5 4935 143e 9435
00000010: c2b3 2134 fe14 9b35 f81b 4936 8318 2d35
00000020: 0fba 3634 9827 ce34 32e4 4a35 69ae 1a36
00000030: e9be 0734 52c2 7935 3a38 a933 d832 1936
00000040: 804e 2d36 f777 f034 48f5 8236 efe5 3a34
00000050: eb2e 3734 98dd e734 7b01 9e34 ee3d 9034
00000060: 4cfc 4929 90c5 4135 e256 b034 1a88 be35
00000070: 8951 0536 33a9 1735 3fc6 f934 ff96 1036
00000080: a4e9 8f34 4b61 2a36 f6df 0836 2a35 0633
00000090: 655c ac33 1b0d 1c34 ebb6 8735 e425 cc34
000000a0: 7b27 4432 1fe5 be35 7ca0 7a34 cd91 df35
000000b0: dbd0 d831 eb23 8134 f8bb 6c32 f8c6 9c32
000000c0: c974 c933 9b20 6736 506a 1935 dc0c 3e35
000000d0: 3c5b aa35 ea29 a635 f7e2 7e32 c30a 2633
000000e0: 33f7 a135 32f3 a435 bcc2 0f35 ef40 7a33
000000f0: c536 7d31 9bbb 5a36 20cf 1536 973e 0b36
00000100: e7fc b735 7354 1033 68aa a934 ea59 f234
00000110: e2ab 8533 daaa fe34 c350 a835 ef5a 8834
00000120: 4698 8d33 e1d7 2134 f14b a334 ef8f 7c35
00000130: 9bef 5f33 47cf c134 70b7 0833 28d0 7c35
00000140: 1c8a 8f35 fbef 3e34 cf1b d935 736d 9633
00000150: fe86 8c33 f35f 3634 26ae 0834 187b e133
00000160: 8347 d128 c28a 9f34 429f 1834 9363 1e35
00000170: dd63 5e35 8f62 7634 d6a7 4534 0ff5 6d35
00000180: 3767 eb33 c705 8b35 fc8c 6335 9a10 7032
00000190: e5a3 0c33 e1f6 8333 644a e434 3567 2b34
000001a0: 8e74 9931 9ff1 1b35 1370 d533 1787 3535
000001b0: a37b 2a31 7ffe ca33 d037 cc31 a482 fe31
000001c0: dad5 2433 f7ab be35 623d 7734 ec0e 9c34
000001d0: 6042 0a35 dcef 0735 3be3 c131 b679 8232
000001e0: d618 0535 1445 0535 7576 7934 50c0 c232
000001f0: e9b9 c130 1a61 b535 01c4 7935 ec2d 6b35
00000200: 19e3 d336 df99 1134 ecce d135 03fc 0536
00000210: 41cf a134 71be 0f36 a07d d336 3bb4 8435
00000220: f3f3 8734 d5af 2535 6260 a735 fe4c 8a36
00000230: b943 5e34 dfd0 ba35 3f78 0534 6bfa 9136
00000240: 6638 aa36 fcd5 3b35 5ce2 0437 589e bf34
00000250: a8ba 8634 8cf5 3035 571a 4935 3d4c da34
00000260: e2ef 862a 7ed0 aa35 793d 3535 bfc6 3b36
00000270: a0e7 8436 ff0f 8035 4c64 3f35 2d1d 8836
00000280: c72f f134 e521 9d36 91f9 8436 0b98 fb33
00000290: 17c3 0a34 d118 9034 b6b4 0a36 5894 4e35
000002a0: 5fb4 9432 dbb8 2536 38d7 db34 9ba6 4c36
000002b0: fc33 2532 8b49 c434 100a 0533 39ee 0b33
000002c0: 551d 2534 a0a0 e536 12ea 7b35 0167 ae35
000002d0: 3223 1636 6eed 2636 6b70 b532 305e 7d33
000002e0: f6ea 1136 f4cc 0836 174f cf35 d46d bb33
000002f0: f508 b731 e3d3 d736 51a3 8f36 9d1e 9036
00000300: 6bf1 e833 e97e 3e2f 1c56 c032 f7f4 b632
00000310: 015a 9f32 e1f4 bd32 9e43 1434 d795 3c30
00000320: 2ba1 b32b a029 f431 28ae 8531 3cfb 4a33
00000330: ad71 812d fe5d 0731 e6ba b12d 4f58 5a33
00000340: 19bc b133 35eb 702f e3a0 1934 ee94 6f32
00000350: a927 162d 2fc9 302f ce9a 8633 a6a8 162d
00000360: 0000 0000 2fe5 8032 8409 9b31 65ea 1d33
00000370: 8389 8233 2dd4 2c31 828e 092e c8bc 3433
00000380: 99ab 5c30 4fbc 6433 bdcb 5133 2006 8c32
00000390: 88c6 042e 37e8 3a32 4b26 e832 0f81 e932
000003a0: c0a9 b42a 667e 8032 5814 1830 cf63 b132
000003b0: 6bb9 3027 fddd aa2e fc44 2c31 2c21 0f31
000003c0: 2a33 fc2e dbdd cd33 76e8 1330 a039 2632
000003d0: 40a3 4a32 0eb7 b133 17e9 202c bd97 032c
000003e0: 07d5 a532 ecd5 fc31 acba 0734 ecdc 582b
000003f0: 11b9 272c 9da5 1434 c24f a333 3627 c333

exp_avg f4 [32]
0.0012803106 0.0007925418 0.0015110008 2.2105623e-10 0.0019838284 5.406817e-13 0.0 0.0
0.0011929824 0.001951433 0.0 0.0 5.623542e-14 0.0016158534 0.0 0.0
0.0 0.0015154216 0.002021762 0.0 0.0 0.0 0.0016218694 7.14105e-35
0.0011828766 0.0011915067 0.0 0.0019441427 1.5994243e-10 9.129088e-16 0.0015605985 0.0
00000000: 18d0 a73a 94c2 4f3a c60c c63a cc0d 732f
00000010: 1e03 023b 3930 182b 0000 0000 0000 0000
00000020: d95d 9c3a 3ac7 ff3a 0000 0000 0000 0000
00000030: 0643 7d29 0bcb d33a 0000 0000 0000 0000
00000040: 0000 0000 1ca1 c63a 8a7f 043b 0000 0000
00000050: 0000 0000 0000 0000 e894 d43a 78d7 bd06
00000060: c10a 9b3a 552c 9c3a 0000 0000 9bd2 fe3a
00000070: cbdb 2f2f 6490 8326 ff8c cc3a 0000 0000

exp_avg_sq f4 [32]
8.054527e-06 3.4372852e-06 1.9916457e-05 9.260762e-07 4.7145295e-05 6.2579957e-06 7.0667627e-09 1.2423092e-08
8.865729e-06 4.408901e-05 6.680851e-07 2.0832092e-06 7.635786e-07 3.3456245e-06 5.2294894e-07 1.5971316e-06
1.4839635e-10 1.804414e-05 4.6756435e-05 7.2977684e-08 6.053932e-10 1.7348578e-06 1.9698899e-05 1.0413204e-07
1.0835886e-05 8.484731e-06 6.026606e-07 4.348862e-05 6.751216e-08 4.531398e-07 2.2841425e-05 2.1228866e-06
00000000: ee21 0737 1cac 6636 4412 a737 7997 7835
00000010: e0bd 4538 c6fb d136 e7cf f231 566d 5532
00000020: 04be 1437 37ec 3838 7556 3335 43cd 0b36
00000030: b9f8 4c35 6485 6036 c760 0c35 065d d635
00000040: dc29 232f 7f5d 9737 571c 4438 e8b7 9c33
00000050: c268 2630 43d9 e835 103f a537 329f df33
00000060: c7cb 3537 a459 0e37 85c6 2135 8d67 3638
00000070: 34fb 9033 0f47 f334 969b bf37 ea76 0e36

exp_avg f4 [1, 32]
-0.010873993 -0.010528545 -0.011442896 1.1260655e-10 -0.011319981 5.5498537e-14 0.0 0.0
-0.012693862 -0.01109229 0.0 0.0 8.1877397e-16 -0.0036252448 0.0 0.0
0.0 -0.012128229 -0.01311443 0.0 0.0 0.0 -0.010720876 2.2443058e-36
-0.0125588 -0.011902247 0.0 -0.013450813 7.422848e-12 1.2701378e-17 -0.0103894165 0.0
00000000: d528 32bc eb7f 2cbc fc7a 3bbc da9f f72e
00000010: 7177 39bc 75f1 7929 0000 0000 0000 0000
00000020: ebf9 4fbc 70bc 35bc 0000 0000 0000 0000
00000030: dbfe 6b26 8495 6dbb 0000 0000 0000 0000
00000040: 0000 0000 7bb5 46bc e8dd 56bc 0000 0000
00000050: 0000 0000 0000 0000 9da6 2fbc a7ec 3e04
00000060: 6dc3 4dbc a401 43bc 0000 0000 cc60 5cbc
00000070: 8995 022d 904c 6a23 5f38 2abc 0000 0000

exp_avg_sq f4 [1, 32]
0.000462386 0.00068865344 0.00065726275 4.978971e-06 0.00077629887 2.5468426e-05 1.8956238e-10 3.772085e-08
0.000637697 0.00085011835 5.535728e-07 8.798905e-07 1.4490983e-07 2.5345282e-05 9.1057404e-07 2.1036678e-07
1.2983296e-10 0.00059500907 0.0009762812 3.0869288e-08 5.014355e-11 3.3016053e-07 0.0004486128 5.3075414e-08
0.0007816904 0.00058965164 3.992162e-07 0.0009680834 1.01872715e-08 1.8404717e-07 0.0006243651 3.8525313e-06
00000000: 666c f239 c086 343a 284c 2c3a 0911 a736
00000010: 8980 4b3a 07a5 d537 116d 502f 8302 2233
00000020: 1f2b 273a 7ada 5e3a 3c99 1435 9d31 6c35
00000030: 8398 1b34 949c d437 2c6e 7435 2ee1 6134
00000040: bbc0 0e2f 62fa 1b3a 1fed 7f3a 2495 0433
00000050: 9e88 5c2e eb40 b134 ca33 eb39 09f5 6333
00000060: 5bea 4c3a da92 1a3a db53 d634 fac6 7d3a
00000070: 1804 2f32 809e 4534 6fac 233a fe44 8136
