app/model.pt (torch, 24929 bytes, 5 tensors)

weight f4 [64, 14]
0	0x3e3ee37f	0.1864147
1	0x3e5f17b2	0.21786383
2	0xbd488a35	-0.04895993
3	0x3e7ac14d	0.24487801
4	0xbd6ad287	-0.05732968
5	0x3d36b025	0.04460158
6	0xbe0950ed	-0.13409777
7	0x3e1acbb6	0.15116772
8	0x3e6e66e0	0.23281431
9	0xbe595637	-0.21224295
10	0x3e44535d	0.19172426
11	0x3d3b32b1	0.04570264
12	0x3e4d14b6	0.20027432
13	0x3d37b2ab	0.044848125
14	0x3e1ae7c6	0.15127477
15	0xbd1330bb	-0.035935145
16	0x3e4aceea	0.19805494
17	0x3da6a197	0.081362896
18	0xbe0431c1	-0.12909605
19	0x3dad7164	0.08468893
20	0xbe0678c9	-0.13132013
21	0xbd2063d9	-0.039157722
22	0xbd7a8120	-0.0611583
23	0x3e344c46	0.17607221
24	0xbe4b07e5	-0.1982723
25	0xbd8f2b2e	-0.06990658
26	0xbd94752d	-0.07248912
27	0xbe0bf36a	-0.13667074
28	0x3c89474a	0.016757626
29	0xbe87635e	-0.26443
30	0x3e74ad46	0.23894224
31	0xbe5df2f2	-0.21674708
32	0x3e500c15	0.20317109
33	0x3d61ee16	0.055158697
34	0xbdada39d	-0.084784724
35	0x3e241afd	0.1602592
36	0x3d54523a	0.05183623
37	0x3e56396c	0.20920342
38	0x3c3564cb	0.011071394
39	0xbdb53942	-0.08848812
40	0x3d98aa07	0.07454305
41	0xbd662efd	-0.056197155
42	0x3dd1e250	0.10248244
43	0x3e6696be	0.22518441
44	0x3e133e64	0.14379269
45	0xbdfb7b06	-0.12279324
46	0x3e1b9c71	0.15196396
47	0x3d1381f3	0.0360126
48	0x3df372bc	0.11887118
49	0xbe2c16e5	-0.16805609
50	0xbe8fd47e	-0.28091806
51	0xbdf666d7	-0.12031334
52	0xbe52a9d3	-0.20572595
53	0x3e5040f3	0.20337276
54	0x3d79f5e5	0.06102552
55	0x3dd68484	0.10474494
56	0x3dbea000	0.09307861
57	0xb9bf3f7e	-0.00036477664
58	0x3e5369d7	0.20645843
59	0xbe35ac70	-0.17741561
60	0x3ce82c83	0.028341537
61	0xbe3c725e	-0.18403003
62	0x3da96715	0.082716145
63	0xbdabf5ba	-0.08396478
64	0x3d9fa818	0.07795733
65	0xbd58a04e	-0.052887253
66	0x3e7ce549	0.2469684
67	0xbe1d0da3	-0.15337233
68	0xbe2399a1	-0.15976574
69	0xbe242e29	-0.16033234
70	0x3e52ca33	0.20584945
71	0x3d898403	0.06714632
72	0x3e689885	0.22714432
73	0xbe83d3fe	-0.25747675
74	0xbe99d8cc	-0.30048215
75	0xbe6f0012	-0.2333987
76	0xbe5a57c1	-0.21322538
77	0x3d980cd4	0.07424322
78	0x3d82d0e5	0.063875
79	0x3e3fedb9	0.18743028
80	0xbe2609cf	-0.16214679
81	0xbe510aeb	-0.20414321
82	0x3de119a8	0.10991222
83	0xbe039a33	-0.12851791
84	0x3e07942c	0.13240117
85	0xbda19457	-0.07889622
86	0x3dda6ffc	0.106658906
87	0xbe7ecce9	-0.24882855
88	0xbe26b7fc	-0.16281122
89	0x3d004dca	0.031324185
90	0x3c34d84c	0.011037897
91	0xbdd394d8	-0.10331124
92	0x3e03a1cd	0.12854691
93	0x3e0a8161	0.13525917
94	0xbe52b20b	-0.2057573
95	0xbe3e67f7	-0.18594347
96	0x3e4db97e	0.20090291
97	0xbdf484d0	-0.119393945
98	0xbd9aae3a	-0.07552762
99	0xbe85e5f9	-0.26152018
100	0xbe070413	-0.13185148
101	0x3dd9734f	0.106176965
102	0xbc12ae1f	-0.0089526465
103	0xbe1b2cc1	-0.15153791
104	0x3c114b3e	0.008868037
105	0xbe02d44b	-0.12776296
106	0xbe402b20	-0.18766451
107	0xbe100d6d	-0.14067622
108	0xbe83dfc6	-0.25756663
109	0xbe1817dc	-0.14852852
110	0x3e869190	0.2628293
111	0x3d5939ed	0.053033758
112	0x3dd97bc5	0.1061931
113	0xbe7f40bb	-0.24927036
114	0xbe33be2f	-0.17553018
115	0xbda4d530	-0.08048475
116	0x3d30b903	0.04314519
117	0xbe70d01b	-0.23516886
118	0xbd9c56cc	-0.07633743
119	0xbe11cc02	-0.14237979
120	0x3c16fc0c	0.009215366
121	0xbdcbabcb	-0.09944876
122	0xbcf2b999	-0.029629515
123	0xbe3eccb7	-0.1863278
124	0xbe3bd97c	-0.18344682
125	0xbe1fa9ac	-0.15592068
126	0xbdb3f078	-0.087861
127	0xbe581e80	-0.21105385
128	0x3e5f9419	0.21833839
129	0xbd8be62f	-0.068310134
130	0x3e68da95	0.22739632
131	0x3d9b845b	0.07593604
132	0xbe6f90c6	-0.2339507
133	0x3e38deef	0.18053792
134	0xbdbd3278	-0.09238142
135	0xbdbe87df	-0.09303259
136	0xbe549776	-0.20760903
137	0xbe85f3b8	-0.26162505
138	0x3d887810	0.06663525
139	0xbd88c68d	-0.066784956
140	0x3dc31831	0.095260985
141	0xbe6b643b	-0.22987454
142	0x3e42ff98	0.19042814
143	0xbe450e2c	-0.19243687
144	0xbd755b09	-0.05990127
145	0x3d521d02	0.051297195
146	0x3e065bb4	0.1312092
147	0x3e53b5dc	0.20674843
148	0x3e6e3b52	0.23264816
149	0xbe5e4d4f	-0.21709178
150	0x3d623d01	0.05523396
151	0xbdfa7bc9	-0.122306414
152	0xbd0b124b	-0.033952992
153	0xbe438ac2	-0.190959
154	0x3e6d44a5	0.23170717
155	0xbe60bf88	-0.21948063
156	0x3df5892e	0.119890556
157	0x3db41fbb	0.087951146
158	0x3db33ef5	0.087522425
159	0xbe22f2bf	-0.15912913
160	0x3e6c8031	0.23095776
161	0x3d32745f	0.04356801
162	0x3cd6e6d1	0.026233109
163	0xbe743871	-0.23849656
164	0x3df27119	0.11837978
165	0xbd45569e	-0.048178308
166	0xbe1baae9	-0.15201916
167	0x3e642aad	0.22281905
168	0x3d4a1387	0.04933503
169	0xbdf9d441	-0.12198687
170	0xbe247ec7	-0.16063987
171	0xbcecc27e	-0.028901335
172	0x3e08759b	0.13326113
173	0xbda51254	-0.080601364
174	0xbe033dbd	-0.1281652
175	0xbde3058a	-0.11085041
176	0xbe5e3424	-0.21699578
177	0x3dd40fab	0.10354551
178	0x3e68360d	0.22676869
179	0xbe8432f7	-0.25820133
180	0x3d9060f5	0.07049743
181	0x3d6bb6ac	0.057547256
182	0x3d796dac	0.060895607
183	0xbd935221	-0.07193399
184	0x3e22ce03	0.158989
185	0x3e1ead7f	0.15495871
186	0x3ddf5278	0.109044015
187	0xbcfcb6ea	-0.030848939
188	0xbd58732a	-0.052844204
189	0x3d4d113a	0.050065257
190	0xbd0bed2a	-0.034161724
191	0xbd860807	-0.065445
192	0x3e55be3f	0.20873354
193	0x3e87443e	0.26419252
194	0xbcea6e63	-0.02861709
195	0xbda3336e	-0.07968794
196	0x3bd24cc9	0.006417845
197	0xbc90ec86	-0.017690908
198	0x3d9ab23b	0.07553526
199	0x3db3f5e2	0.08787133
200	0xbe820f64	-0.25402367
201	0xbd7b60bb	-0.061371546
202	0x3e72fd63	0.23729472
203	0x3dd6f72c	0.10496363
204	0xbc6e0906	-0.014528519
205	0xbe14ceb6	-0.14531979
206	0xbe0e9da6	-0.13927326
207	0xbe6ebe8d	-0.23314877
208	0xbd5f9ad0	-0.054591
209	0x3e065104	0.13116843
210	0x3e34e16c	0.17664117
211	0x3df93442	0.121681705
212	0xbe6d4ead	-0.23174544
213	0xbe1f3a1d	-0.15549512
214	0xbcfc3225	-0.03078563
215	0x3e7ea260	0.24866629
216	0x3d0cc06f	0.034363206
217	0xbd87a942	-0.0662408
218	0x3de22e06	0.110439345
219	0xbdcf7571	-0.10129822
220	0xbe2036b1	-0.15645863
221	0x3e4ed815	0.20199616
222	0xbdf9aeff	-0.12191581
223	0xbd884390	-0.066535115
224	0xbe8ec1ce	-0.27882236
225	0x3e2f8eb9	0.17144288
226	0x3e4da90b	0.20084016
227	0x3dcf7810	0.10130322
228	0xbe44b701	-0.19210435
229	0xbe896324	-0.2683345
230	0xbe6a17cf	-0.22860645
231	0x3e44f2b5	0.1923321
232	0x3df5f79f	0.120101206
233	0x3e6770e9	0.22601666
234	0x3dd3684b	0.10322627
235	0x3d4773b6	0.048694335
236	0xbcc288ed	-0.023746932
237	0xbe4a5b9e	-0.19761512
238	0xbe47eb88	-0.19523442
239	0xbe4a9013	-0.19781522
240	0x3df84e69	0.121243306
241	0xbda3c7cc	-0.079970926
242	0xbc629542	-0.013829531
243	0xbdd31fb7	-0.103087835
244	0xbd21afca	-0.039474286
245	0xbe51e39a	-0.2049698
246	0xbdee856c	-0.11646542
247	0x3da34f21	0.07974077
248	0xbde6ed5a	-0.1127574
249	0x3e18a29f	0.14905785
250	0xbdbea6af	-0.09309136
251	0xbe5238ef	-0.20529531
252	0xbd8a3708	-0.06748778
253	0xbe286fcd	-0.16448899
254	0xbdfe63ea	-0.12421401
255	0xbe931d10	-0.2873311

bias f4 [64]
0	0xbddd134d	-0.10794697
1	0xbde3284a	-0.11091669
2	0xbd8c9d61	-0.06865955
3	0xbded91f3	-0.11600103
4	0x3e7e3e7a	0.2482852
5	0x3ddd12c7	0.10794597
6	0x3e4bc9bb	0.19901173
7	0xbb0b06c3	-0.0021213747
8	0x3d5777d5	0.052604515
9	0x3db8bbf4	0.09020224
10	0xbe875bf7	-0.2643735
11	0x3c4454bd	0.011983094
12	0xbafe3b09	-0.0019396256
13	0xbdf9bc92	-0.1219417
14	0xbe475097	-0.19464336
15	0x3e75bdfe	0.23998258
16	0x3e4955da	0.19661656
17	0x3df62f5d	0.120207526
18	0x3e65c66b	0.22438972
19	0xbdcf9eb9	-0.10137696
20	0xbd08dadd	-0.03341185
21	0x3de697c3	0.11259415
22	0xbd18d27d	-0.037310112
23	0xbd66b051	-0.056320492
24	0xbe4b926d	-0.19880076
25	0x3d8daf52	0.06918205
26	0xbe20d3ed	-0.15705843
27	0x39e39cef	0.0004341374
28	0x3e6a848f	0.2290213
29	0xbdc2e8ee	-0.09517084
30	0xbda17f17	-0.078855686
31	0x3e19ffde	0.15039012
32	0xbde76c1e	-0.112999186
33	0xbd1cfc32	-0.03832645
34	0x3e764012	0.24047878
35	0xbddfea34	-0.109333426
36	0xbe53ce95	-0.20684274
37	0xbe12c40f	-0.14332603
38	0xbdbedc5f	-0.09319376
39	0xbdf79fa8	-0.12090999
40	0xbe1ba610	-0.15200067
41	0x3dc490c6	0.09597926
42	0x3c8a4653	0.016879236
43	0xbdc447d0	-0.0958401
44	0xbe3c82b9	-0.18409242
45	0xbdb8b0ee	-0.09018122
46	0xbdea02c4	-0.11426309
47	0xbdb34efe	-0.08755301
48	0xbe865fba	-0.2624491
49	0x3d003655	0.031301815
50	0xbe5e116b	-0.21686332
51	0xbe580fbe	-0.21099755
52	0xbe66a550	-0.22523999
53	0x3e099216	0.13434634
54	0xbe18801b	-0.14892618
55	0xbdcf6545	-0.101267375
56	0x3e46e31c	0.19422573
57	0x3e019a8f	0.12656616
58	0x3e254904	0.16141135
59	0xbe8449f9	-0.25837687
60	0xbe4bc30a	-0.1989862
61	0xbde2adb1	-0.11068285
62	0x3e6979bf	0.22800349
63	0x3c4c26df	0.0124604395

weight f4 [32, 64]
0	0xbd984717	-0.07435434
1	0x3db12e35	0.086513914
2	0xbd912623	-0.07087352
3	0xbcbeab82	-0.02327514
4	0xbd4036f6	-0.046927415
5	0x3df3c8e2	0.1190355
6	0x3d5a2487	0.05325749
7	0xbc90b98c	-0.0176666
8	0x3dcc21bf	0.09967374
9	0xbbd6baaa	-0.006553014
10	0x3d9ca0b7	0.076478414
11	0x3d4d69cb	0.05014972
12	0x3d18da2a	0.037317432
13	0xbcba6340	-0.022752404
14	0x3e0a230c	0.13489932
15	0xbc1943c4	-0.0093545355
16	0xbd387c33	-0.04504032
17	0x3e0099f3	0.12558727
18	0x3dda8e37	0.106716566
19	0x3e2326e3	0.15932803
20	0x3db10cbf	0.08645009
21	0xbb23e4d4	-0.0025008218
22	0x3d9ce580	0.07660961
23	0x3df88396	0.12134473
24	0xbdfb17f2	-0.122604266
25	0xbbae6373	-0.005321914
26	0xbda92c7b	-0.08260437
27	0x3d294a4e	0.041330628
28	0x3d3d8ec9	0.04627875
29	0x3c537041	0.012905181
30	0x3d1feda9	0.03904501
31	0x3d1ca09e	0.038239114
32	0xbc57dc50	-0.013175085
33	0xbdcd45c2	-0.10023071
34	0x3dccd010	0.10000622
35	0xbd42c7e0	-0.047553897
36	0xbc0177ce	-0.007902099
37	0x3c93cb5b	0.018041303
38	0xbbffb62e	-0.0078037
39	0xbdba3e27	-0.09093886
40	0x3d82e04d	0.06390438
41	0xbd3d71b3	-0.04625101
42	0xbd990bf3	-0.07472982
43	0x3d7446e6	0.059637927
44	0xbd8598c0	-0.065232754
45	0xbd213feb	-0.039367598
46	0xbc6400a9	-0.013916173
47	0xbd0f1ff8	-0.034942597
48	0xbc6548f0	-0.01399444
49	0xbcd16d5a	-0.025564838
50	0x3d71b94a	0.059014596
51	0xbda38518	-0.0798437
52	0xbd88a1f7	-0.06671517
53	0x3c3d1814	0.011541385
54	0x3d617824	0.055046216
55	0x3de05aea	0.109548405
56	0xbd8ed664	-0.069744855
57	0x3d1223f4	0.03567882
58	0x3db05ea1	0.08611799
59	0x3d9e3688	0.07725245
60	0xbdce8ab4	-0.10085049
61	0xbc9d35e0	-0.019190729
62	0xbdcd4a5a	-0.10023947
63	0xbd7df42a	-0.06200043
64	0x3d8def7f	0.06930446
65	0xbbe3e6e7	-0.006955016
66	0x3d873f89	0.06603915
67	0xbd8a404b	-0.06750544
68	0x3c4bd9c1	0.012442053
69	0xbd884bd8	-0.06655091
70	0x3d80cae7	0.062887006
71	0xbd8426c7	-0.06452709
72	0xbcabf048	-0.020988598
73	0xbdcbc084	-0.09948829
74	0xbaf12456	-0.001839767
75	0x3df7c86d	0.12098775
76	0x3dcbde09	0.09954459
77	0xbd92af93	-0.071623944
78	0x3bf712bd	0.0075400756
79	0xbc574804	-0.013139728
80	0xbdcb678f	-0.099318616
81	0x3db8e4d3	0.0902802
82	0xbb32ed30	-0.002730202
83	0x3d2027ec	0.039100572
84	0xbd50a92d	-0.05094259
85	0xbd9884a8	-0.07447177
86	0x3d0fb811	0.03508765
87	0x3d3ea33f	0.046542402
88	0x3ce5ae60	0.02803725
89	0xbd4b368c	-0.049612567
90	0x3e128f09	0.14312376
91	0xbce876f3	-0.028377032
92	0xbda4eb59	-0.080527015
93	0xbd4c703b	-0.04991172
94	0x3e03dfd0	0.12878346
95	0x3b872cb4	0.004125202
96	0x3cd13a70	0.02554056
97	0xbd3a565d	-0.04549252
98	0xbd395ad5	-0.04525264
99	0xbdc3212a	-0.0952781
100	0xbdb87c91	-0.09008134
101	0x3d997a65	0.07494048
102	0x3dd77a4d	0.10521374
103	0x3e0036c5	0.12520893
104	0xbdb8d136	-0.09024279
105	0x3d906f39	0.07052464
106	0xbdaa3a16	-0.0831186
107	0x3da4f6e0	0.080549
108	0x3dee80f3	0.11645689
109	0x3dd7a4fc	0.10529515
110	0x3db48283	0.08813956
111	0x3d9fa425	0.0779498
112	0x3abb1c4c	0.0014275401
113	0x3d8236ba	0.063580945
114	0xbd3ee7ed	-0.0466079
115	0x3d948e85	0.07253746
116	0xbd38fab3	-0.04516096
117	0x3bc5acee	0.0060325777
118	0x3b13fbc0	0.0022580475
119	0xbce7b38b	-0.028283855
120	0xbd9cdf9a	-0.07659836
121	0xbd4b2e57	-0.04960474
122	0xbd861814	-0.06547561
123	0xbded3436	-0.11582224
124	0x3d204e99	0.039137457
125	0x3dad1d5a	0.08452864
126	0x3de3adf9	0.11117167
127	0x3d9864d8	0.074411094
128	0xbda0db24	-0.07854298
129	0xbe004259	-0.1252531
130	0x3d34ada1	0.044110898
131	0x3d85aec7	0.06527477
132	0xbdeb479d	-0.114882685
133	0x3ceca3a1	0.028886618
134	0x3dc4f6e1	0.09617401
135	0x3981a705	0.00024729237
136	0xbd9a3abe	-0.075307354
137	0x3dd57ca2	0.104241624
138	0x3d43c913	0.04779918
139	0x3d901de0	0.07036948
140	0xbd9b5ed0	-0.075864434
141	0x3d7922f3	0.060824346
142	0xbda58b80	-0.08083248
143	0x3dd7997d	0.105273224
144	0xbd90885a	-0.07057257
145	0x3d993483	0.07480719
146	0x3c5c7691	0.013456003
147	0x3d0a4cd0	0.03376466
148	0xbc87b4e5	-0.01656575
149	0x3cbf2f3c	0.023337953
150	0xbd82eb1d	-0.063925005
151	0xbdfa39d0	-0.12218058
152	0xbd44b644	-0.048025385
153	0x3dbff380	0.09372616
154	0xbd38d2a8	-0.045122772
155	0x3cda6ca6	0.026663136
156	0xbd7118eb	-0.058861654
157	0x3d99fdb2	0.07519092
158	0x3d849ade	0.06474851
159	0x3ceaaab0	0.028645843
160	0xbd9716c7	-0.07377391
161	0xbdf501ff	-0.11963271
162	0xbc2663d1	-0.010155634
163	0xbda9df1e	-0.08294509
164	0x3dc03c0d	0.09386454
165	0xbe05307c	-0.13006777
166	0x3d2c5a48	0.042078286
167	0x3de716de	0.112836584
168	0x3d80364a	0.06260355
169	0x3cddc53a	0.027071584
170	0xbe030f86	-0.1279889
171	0x3dd4d306	0.10391812
172	0xbcaf2718	-0.021380946
173	0xbde54f80	-0.11196804
174	0x3de7d0a4	0.11319092
175	0xbd8162bc	-0.0631766
176	0xbc7028b9	-0.014658147
177	0x3dc79296	0.09744756
178	0xbdb678d4	-0.08909765
179	0xbdc7f8d1	-0.09764255
180	0x3b8c9ee0	0.0042914003
181	0xbcce18c9	-0.025158303
182	0x3d3db558	0.04631552
183	0xbdbbae68	-0.09164125
184	0xbc302e4a	-0.010753224
185	0xbd77410b	-0.060364764
186	0xbd8d1930	-0.0688957
187	0xbdef162d	-0.116741516
188	0x3d77453c	0.06036876
189	0x3c949e7a	0.018141974
190	0xbdf551c0	-0.11978483
191	0x3dbae60d	0.0912591
192	0x3d3f19d4	0.04665549
193	0xbc05f236	-0.008175423
194	0xbd8ee712	-0.06977667
195	0x3c2fc105	0.010727172
196	0x3e0ba7f1	0.13638283
197	0x3dc1d146	0.09463744
198	0xbdcdd0f4	-0.1004962
199	0x3df39a3d	0.11894653
200	0x3c012f67	0.007884837
201	0x3d593a9b	0.053034406
202	0x3dd7808b	0.105225645
203	0x3de4c5c9	0.11170537
204	0xbd86d2ed	-0.065832
205	0x3e03a1f6	0.12854752
206	0xbddb6d9a	-0.10714264
207	0x3c8ad00f	0.016944913
208	0xbd91a74b	-0.07111987
209	0xbc8dfd89	-0.017332809
210	0x3b286a3d	0.0025698089
211	0xbc90989b	-0.017650893
212	0xbd304f89	-0.0430446
213	0x3cd4aaba	0.025960315
214	0x3defd9f7	0.11711495
215	0x3d93e887	0.072220854
216	0x3d5599a1	0.052148465
217	0x3d27ab34	0.040934756
218	0x3dad7347	0.08469253
219	0x3bb23b5f	0.0054392065
220	0x3c8ebecf	0.017424969
221	0x3d19ed5e	0.037579887
222	0xbdba076a	-0.09083445
223	0xbdaa1c7d	-0.08306215
224	0x3cec2af1	0.02882907
225	0xbd21f8cc	-0.03954391
226	0x3c4e8e02	0.0126070995
227	0xbd0293cc	-0.03187923
228	0x3ccf974f	0.025340704
229	0x3d9f1b2d	0.07768855
230	0xbcfd0b4e	-0.03088918
231	0x3dc8397f	0.097765915
232	0x3d9d0759	0.07667417
233	0xbdb2286d	-0.08699117
234	0xbdb04e2d	-0.08608661
235	0xbdce6a88	-0.10078913
236	0xbddc072a	-0.10743554
237	0xbd697cab	-0.05700366
238	0xbc1e7c73	-0.009673226
239	0xbd01d203	-0.031694423
240	0xbd38e7f7	-0.045143094
241	0xbcedf9b9	-0.029049741
242	0xbcf12fa6	-0.029441666
243	0x3e05276d	0.13003321
244	0xbd12ff1c	-0.035887823
245	0xbda52fec	-0.08065781
246	0x3d1704c7	0.03686979
247	0x3b1e1682	0.0024122302
248	0x3dc44119	0.09582729
249	0x3dbb7d7a	0.09154792
250	0x3de79ea1	0.11309553
251	0xbdb752df	-0.08951353
252	0x3db5b4bf	0.08872365
253	0x3dc77a9b	0.09740182
254	0xbd6a7154	-0.057236984
255	0x3df17e70	0.11791694

bias f4 [32]
0	0xbd40abe0	-0.047038913
1	0xbdb92a2c	-0.09041247
2	0xbdea2d48	-0.11434418
3	0x3db37626	0.087627694
4	0xbc44ded4	-0.012016017
5	0x3e091cb9	0.13389863
6	0x3cbc5f5b	0.022994688
7	0xbe003c25	-0.12522943
8	0x3c96b9e4	0.018399186
9	0x3dcfff8f	0.10156166
10	0x3da13441	0.07871295
11	0x3d3773ed	0.04478829
12	0xbdb6ab4f	-0.08919393
13	0xbd96e013	-0.073669575
14	0x3dc433a5	0.09580163
15	0xbda3dcf5	-0.080011286
16	0x3cf62890	0.030048639
17	0xbd2ad2a3	-0.041704785
18	0x3cda59f4	0.026654221
19	0xba8f88d4	-0.0010950812
20	0xbdd18667	-0.10230713
21	0xbd341f2b	-0.043975037
22	0x3dbd529a	0.092442706
23	0x3bf363f1	0.0074276854
24	0x3d517f46	0.051146768
25	0xbd9ee146	-0.07757811
26	0x3dd7081d	0.10499594
27	0xbd2dae26	-0.04240241
28	0xbd56002b	-0.052246254
29	0x3d00212a	0.031281628
30	0xbd809242	-0.062778965
31	0xbd2fdd6a	-0.042935766

weight f4 [1, 32]
0	0xbcfe6567	-0.031054212
1	0xbc45d47c	-0.012074586
2	0xbdb10645	-0.08643774
3	0x3d69583b	0.05696891
4	0xbe2217dd	-0.15829416
5	0x3de8d81d	0.11369345
6	0x3e25256b	0.16127555
7	0x3cdb5f36	0.026778799
8	0xbd2241db	-0.039613586
9	0xbe1625dc	-0.1466288
10	0x3d9f2687	0.077710204
11	0x3e1a8bea	0.15092435
12	0x3e086376	0.13319191
13	0x3c8148c0	0.01578176
14	0x3d8a1fb4	0.06744328
15	0x3e1efa78	0.15525234
16	0x3bf6cca4	0.0075317193
17	0xbd8d83b9	-0.0690989
18	0xbe115251	-0.14191557
19	0x3d8e1cb3	0.06939068
20	0x3d82e43b	0.06391188
21	0x3e176913	0.14786176
22	0xbd92fe3b	-0.07177397
23	0x3d9705c1	0.07374144
24	0xbd37496f	-0.044747766
25	0xbcdaaea3	-0.026694601
26	0x3dc91dc7	0.09820133
27	0xbe1250c5	-0.14288624
28	0x3dfad17b	0.122469865
29	0x3d999f0c	0.07501039
30	0xbdae617c	-0.085146874
31	0x3dba5f81	0.09100247
