app/model.pt (torch, 19433 bytes, 5 tensors)

weight f4 [64, 14]
0.15174939 0.27507216 -0.055816025 0.23785843 -0.01737744 0.08566175 -0.09846681 0.20188715
0.21074094 -0.17094386 0.20562859 0.08237984 0.28518924 0.06105081 0.18362378 -0.08090165
0.15309313 0.078085974 -0.121868476 0.17476283 -0.12632194 0.03880807 -0.13561839 0.18773112
-0.38928068 -0.023957347 0.077255785 -0.09983002 -0.0067367265 -0.25570965 0.24027744 -0.25544816
0.22238648 0.12213583 -0.09396968 0.2078309 0.019866597 0.2745671 -0.010433312 -0.05648936
0.095408954 -0.07270681 0.10901307 0.29042995 0.1536672 -0.09212591 0.174594 0.09377563
0.1787652 -0.1108893 -0.30788776 -0.08749008 -0.2812029 0.2606748 0.12952922 0.09053601
0.0010983893 -0.038668297 0.10807169 -0.23804249 -0.040664796 -0.1532339 0.020774217 -0.12157299
-0.0070982156 -0.17516795 0.091578014 -0.1363248 -0.32645229 0.035595544 0.19476758 0.16724671
0.2897105 -0.22937815 -0.2618885 -0.13232924 -0.1462319 0.17073236 0.066987544 0.24025624
-0.16666986 -0.11750891 0.20168944 -0.054912653 0.11949564 -0.0026870277 0.16602023 -0.18697435
-0.09686559 0.11948191 0.100842364 -0.023856545 0.12773646 0.1997415 -0.23987155 -0.09548134
0.295753 -0.074557774 -0.10959299 -0.18901865 -0.13587582 0.28774294 -0.058439985 -0.031324543
0.14517282 -0.100736246 -0.31816214 -0.026777389 -0.31801823 -0.060954697 0.38919812 0.036082048
0.011329667 -0.110479355 -0.14497018 0.009338107 0.090016715 -0.16200387 -0.0072309775 -0.081614636
-0.121715225 -0.15470862 -0.016646465 -0.059099328 -0.20359874 -0.031957272 -0.07246351 -0.21322598
0.14269617 -0.07797194 0.18316378 0.23959337 -0.26964995 0.25036868 -0.10058688 -0.086017504
-0.20657079 -0.19243875 0.13663493 -0.09811428 0.11422595 -0.20782973 0.22920811 -0.16415231
-0.02174163 0.07803075 0.21159157 0.25754535 0.22176139 -0.19022478 0.07242319 -0.073000684
0.067153715 -0.148859 0.19495662 -0.14224483 0.15054874 0.09681973 0.11012816 -0.11428933
0.28079253 0.10309528 -0.007241231 -0.22146298 0.06220582 0.0047638775 -0.05319182 0.23735578
-0.054139983 -0.16944471 -0.16692771 0.015198288 0.07981978 0.03400747 -0.15408394 -0.026067715
-0.29163107 0.18437198 0.12763724 -0.21850641 0.10190457 0.16286443 0.065831296 -0.08408974
0.15020195 0.1596672 0.13627572 -0.0128273945 0.030639792 0.059307087 -0.0057050237 -0.022901481
0.20397367 0.25927734 0.09898558 -0.0046566166 -0.03877166 0.04845596 -0.031065213 0.06736689
-0.32968864 0.020509453 0.3650877 0.061904117 -0.23299997 -0.1070306 -0.22725931 -0.16773975
-0.064066015 0.07027241 0.112839624 0.18012252 -0.22621512 -0.15947022 -0.018023506 0.29491788
0.08342793 -0.025599586 0.06403352 -0.07728665 -0.23922658 0.23531166 -0.06112614 -0.031623375
-0.3113369 0.22789618 0.21684411 0.11064647 -0.1431444 -0.21494927 -0.18692908 0.2535867
0.103478976 0.23582397 0.08140897 0.12128136 0.056927107 -0.16672605 -0.21574719 -0.19731103
0.12962337 -0.003665393 -0.0006779711 -0.07430263 0.035337854 -0.11543729 -0.23865183 0.11486426
-0.1571553 0.2440056 -0.055153813 -0.13476047 -0.090920374 -0.07662658 -0.06633721 -0.2571521
00000000: 3164 1b3e 42d6 8c3e 589f 64bd 2991 733e
00000010: 225b 8ebc 6d6f af3d f8a8 c9bd 81bb 4e3e
00000020: 79cc 573e e80b 2fbe 4d90 523e c3b6 a83d
00000030: 5304 923e 6a10 7a3d df07 3c3e c4af a5bd
00000040: 72c4 1c3e 8aeb 9f3d 2e96 f9bd 07f5 323e
00000050: 8a5a 01be 36f5 1e3d 8cdf 0abe 963c 403e
00000060: cc4f c7be 3342 c4bc 4838 9e3d ae73 ccbd
00000070: c2bf dcbb 60ec 82be 4a0b 763e 1aca 82be
00000080: 48b9 633e 5a22 fa3d 2d73 c0bd a0d1 543e
00000090: 46bf a23c 0f94 8c3e 7bf0 2abc 6361 67bd
000000a0: c565 c33d 4fe7 94bd 3f42 df3d 3cb3 943e
000000b0: ef5a 1d3e 82ac bcbd c5c8 323e 700d c03d
000000c0: 390e 373e ee19 e3bd 77a3 9dbe 002e b3bd
000000d0: d4f9 8fbe 2b77 853e 4fa3 043e f26a b93d
000000e0: d4f7 8f3a a662 1ebd b154 dd3d 69c1 73be
000000f0: 2190 26bd 59e9 1cbe b12e aa3c 43fb f8bd
00000100: 2698 e8bb 3a5f 33be 418d bb3d ba98 0bbe
00000110: c124 a7be a2cc 113d 2771 473e b942 2b3e
00000120: ef54 943e 1be2 6abe 4016 86be 5181 07be
00000130: d1bd 15be 77d4 2e3e c430 893d bb05 763e
00000140: 81ab 2abe 83a8 f0bd ad87 4e3e 17ec 60bd
00000150: 21ba f43d d818 30bb 3501 2a3e 3476 3fbe
00000160: 7761 c6bd eeb2 f43d 7186 ce3d cd6e c3bc
00000170: 59cd 023e 0989 4c3e e3a0 75be b98b c3bd
00000180: f06c 973e bfb1 98bd 4a72 e0bd 1b8e 41be
00000190: 0823 0bbe 0b53 933e c45e 6fbd 2a4e 00bd
000001a0: 2fa8 143e ce4e cebd 26e6 a2be 415c dbbc
000001b0: 49d3 a2be a2ab 79bd fa44 c73e c5ca 133d
000001c0: 11a0 393c 0043 e2bd 1073 14be dcfe 183c
000001d0: af5a b83d 58e4 25be d6f1 ecbb 9325 a7bd
000001e0: d545 f9bd f06b 1ebe 2b5e 88bc 2312 72bd
000001f0: 307c 50be a1e5 02bd c067 94bd e957 5abe
00000200: f21e 123e c1af 9fbd 498f 3b3e f757 753e
00000210: 8f0f 8abe 5330 803e 7f00 cebd f229 b0bd
00000220: 4b87 53be aa0e 45be 07ea 0b3e 24f0 c8bd
00000230: 4bef e93d 51d1 54be 88b5 6a3e 8b17 28be
00000240: 811b b2bc 96ce 9f3d 76ab 583e fcdc 833e
00000250: 6b15 633e 49ca 42be 9c52 943d 6281 95bd
00000260: e387 893d 7e6e 18be b5a2 473e a1a8 11be
00000270: 7329 1a3e 6c49 c63d df8a e13d 8610 eabd
00000280: 0ac4 8f3e 9e23 d33d d947 edbb 31c7 62be
00000290: 88cb 7e3d 4d1a 9c3b aadf 59bd 650d 733e
000002a0: e3c1 5dbd ea82 2dbe 19ef 2abe 3d02 793c
000002b0: 8e78 a33d 6b4b 0b3d 2ec8 1dbe f68b d5bc
000002c0: ab50 95be 02cc 3c3e 56b3 023e 25c0 5fbe
000002d0: 58b3 d03d efc5 263e 8fd2 863d 3e37 acbd
000002e0: 8ace 193e cc7f 233e dd8b 0b3e fe29 52bc
000002f0: 4d00 fb3c fdeb 723d 35f1 babb e39b bbbc
00000300: 79de 503e 00c0 843e f4b8 ca3d 8896 98bb
00000310: 08cf 1ebd c279 463d 797c febc a7f7 893d
00000320: f3cc a8be 7103 a83c c6ec ba3e 2c8f 7d3d
00000330: 8b97 6ebe dc32 dbbd aab6 68be f8c3 2bbe
00000340: 0b35 83bd fbea 8f3d 7618 e73d 0a72 383e
00000350: f0a4 67be 294c 23be 08a6 93bc 7aff 963e
00000360: 43dc aa3d 39b6 d1bc 0224 833d 7748 9ebd
00000370: d0f7 74be 8af5 703e 675f 7abd 8387 01bd
00000380: 8d67 9fbe 9e5d 693e 620c 5e3e 9e9a e23d
00000390: 7294 12be a91b 5cbe 566a 3fbe 1ed6 813e
000003a0: c9ec d33d d77b 713e bfb9 a63d 5d62 f83d
000003b0: 662c 693d 3cba 2abe d5ec 5cbe e70b 4abe
000003c0: fdbb 043e 1737 70bb dfb9 31ba fa2b 98bd
000003d0: 6dbe 103d 636a ecbd 2561 74be f43d eb3d
000003e0: 52ed 20be 9bdc 793e f7e8 61bd a6fe 09be
000003f0: 7634 babd 65ee 9cbd cedb 87bd 71a9 83be

bias f4 [64]
-0.015217916 0.01829968 0.0047137775 0.019967547 0.3490622 0.2864074 0.37404466 0.26916057
0.4328138 0.24845032 -0.17432378 0.1453023 0.19473323 -0.092961416 -0.039686732 0.39617923
0.32779023 0.345205 0.3651408 -0.11440508 0.17496653 0.37000558 -0.035222303 0.17544132
-0.24861458 0.20585302 -0.059564378 0.13669479 0.37714037 0.047353834 0.11688415 0.291225
0.070084155 0.06773159 0.4180106 -0.13499846 -0.03214708 -0.10817573 0.023364833 -0.08164458
-0.012973651 0.25383547 0.19875087 0.057991147 -0.051716678 0.11467191 -0.12848447 -0.09808714
-0.1840057 0.16851935 -0.041272547 -0.124923654 -0.088128224 0.23906597 -0.15936616 0.068525866
0.34001178 0.30608118 0.20804913 -0.12729928 -0.21995328 -0.0015300892 0.35153508 0.10872471
00000000: 9154 79bc 36e9 953c 0876 9a3b fb92 a33c
00000010: 48b8 b23e fea3 923e c882 bf3e 6acf 893e
00000020: c599 dd3e c369 7e3e ef81 32be 20ca 143e
00000030: 2668 473e 8e62 bebd 8e8e 22bd 01d8 ca3e
00000040: 1fd4 a73e b6be b03e bcf3 ba3e 364d eabd
00000050: 6d2a 333e 5f71 bd3e 4345 10bd e4a6 333e
00000060: d294 7ebe 22cb 523e c7f9 73bd b8f9 0b3e
00000070: 8b18 c13e 18f6 413d f560 ef3d 711b 953e
00000080: 4888 8f3d dcb6 8a3d 7c05 d63e 093d 0abe
00000090: a8ac 03bd 3d8b ddbd 9b67 bf3c 4635 a7bd
000000a0: 708f 54bc b9f6 813e 5985 4b3e 2088 6d3d
000000b0: ded4 53bd 1bd9 ea3d 6f91 03be e9e1 c8bd
000000c0: fd6b 3cbe 5690 2c3e 670d 29bd f9d7 ffbd
000000d0: 927c b4bd b6cd 743e e230 23be 4a57 8c3d
000000e0: 0616 ae3e acb6 9c3e d50a 553e be5a 02be
000000f0: 6f3b 61be 468d c8ba 68fc b33e 10ab de3d

weight f4 [32, 64]
-0.077330984 0.1194998 -0.050820597 0.048690606 0.16934703 0.21410777 0.12831646 0.2592237
0.43253976 0.14946184 0.012359305 0.07590168 0.15575384 -0.068585716 0.3072125 0.095021024
0.036006022 0.317517 0.1801013 0.094756834 0.36676064 0.30390012 0.11264349 0.3068489
-0.102751054 0.076170385 0.0152284475 0.07274906 0.15057825 0.08974593 -0.005136178 0.12883063
0.09731035 -0.09621776 0.2096028 -0.045138884 0.16387561 0.08596353 0.09263073 -0.09468658
0.3099861 -0.0047295974 0.024124578 0.10274608 0.26918167 0.18021606 0.042219337 -0.008187818
-0.06364965 0.0178593 0.091836795 -0.054904 -0.033912577 0.136883 -0.13747735 0.29397932
0.009624808 0.12696701 0.15953168 0.34622657 -0.19598286 -0.013999253 -0.040162425 -0.020122893
0.08827336 0.10013715 0.1017975 0.0021252604 0.21079502 0.027130501 0.14970885 0.2205906
0.3745124 0.06811083 -0.029190518 0.14701155 0.1816668 -0.081560485 0.19906531 0.09501835
-0.019176714 0.33043027 0.07847852 0.002858838 0.28021362 0.27855822 0.067859806 0.24254513
0.04861133 0.0314968 0.22083448 0.032721587 0.019790942 0.05316972 0.13702823 0.07181014
0.10056161 -0.03944979 0.072402716 -0.086436294 0.071712695 0.13997681 0.20340034 0.14297594
0.15394713 0.12055234 0.013677903 0.14686494 0.4117293 0.32868856 0.16726367 0.11355734
0.0051255315 0.10950651 0.017077817 0.10331942 0.0033676345 0.12392267 -0.25529522 0.1909786
0.028420981 0.04407744 0.002865774 0.16043073 -0.06666836 0.11582465 0.17882411 0.13079321
-0.038001027 -0.011810096 0.09690993 0.13570923 0.041841853 0.13519605 0.18055923 0.26114452
0.3257455 0.23322086 0.036465492 0.11411422 0.032846875 0.05978372 0.10661852 0.21687958
0.019625619 0.28817075 0.09234066 0.019093687 0.27558956 0.36486796 -0.007651341 0.07074367
-0.032889985 0.17982312 0.05619516 0.08859244 0.037600834 0.19695942 0.08700383 0.11011242
0.047067866 -0.08051691 0.09315383 -0.0500394 0.26958212 -0.055557065 0.1396291 0.14975896
0.3057794 0.09386458 -0.031672865 0.18469106 0.29637742 0.103018574 0.18369856 -0.017582048
-0.006582873 0.16459896 -0.029887978 -0.03748722 0.061411005 0.07897 -0.115813546 0.1108725
0.08949836 0.025615305 0.0023969403 0.13831158 -0.009408266 0.06146198 -0.045428377 0.15379919
0.009992061 -0.013056217 -0.1024863 -0.008011795 0.09571345 0.056179628 -0.12483011 0.09655456
-0.0124833165 0.03453957 0.065305725 0.078563936 -0.11397566 0.08624766 -0.11838845 -0.018181074
-0.114902526 -0.051162608 -0.03130019 -0.036706463 -0.03939677 -0.006039532 0.09766458 0.020824613
0.06993374 0.021323984 0.06735721 -0.035045274 -0.018228075 -0.0020759827 -0.1366463 -0.12821811
-0.0120743755 -0.07627645 -0.027022127 -0.052227747 -0.016863083 0.057154316 -0.070043586 0.07539101
-0.01066831 -0.12377312 -0.12968008 -0.12631348 -0.09290948 -0.07514889 -0.029249014 -0.051817823
-0.090075836 -0.065526105 -0.06988072 0.09306483 -0.070423745 -0.113513045 0.032995224 -0.023020087
0.06534096 0.049460806 0.088716894 -0.10904727 0.07006509 0.0775713 -0.08759401 0.08609682
00000000: b55f 9ebd 50bc f43d 4229 50bd cd6f 473d
00000010: 4f69 2d3e 113f 5b3e 6465 033e f8b8 843e
00000020: da75 dd3e 860c 193e af7e 4a3c 5772 9b3d
00000030: ef7d 1f3e ab76 8cbd f54a 9d3e 629a c23d
00000040: 0d7b 133d 9791 a23e 7a6c 383e df0f c23d
00000050: 0dc8 bb3e cc98 9b3e a1b1 e63d 4d1b 9d3e
00000060: 256f d2bd 38ff 9b3d bd80 793c 76fd 943d
00000070: 2f31 1a3e b7cc b73d 624d a8bb 2dec 033e
00000080: a64a c73d d10d c5bd 1ea2 563e 8de3 38bd
00000090: 02cf 273e a60d b03d 2eb5 bd3d 0aeb c1bd
000000a0: 80b6 9e3e bdfa 9abb e8a0 c53c 896c d23d
000000b0: 2ed2 893e 8f8a 383e 2fee 2c3d 3326 06bc
000000c0: bf5a 82bd ab4d 923c ee14 bc3d 04e3 60bd
000000d0: eae7 0abd 0f2b 0c3e ddc6 0cbe 7584 963e
000000e0: 5fb1 1d3c a403 023e 465c 233e 9c44 b13e
000000f0: bbaf 48be 1f5d 65bc 5b81 24bd c4d8 a4bc
00000100: aac8 b43d b514 cd3d 357b d03d f447 0b3b
00000110: a6da 573e c940 de3c 474d 193e 81e2 613e
00000120: 17c0 bf3e b17d 8b3d f420 efbc 328a 163e
00000130: dd06 3a3e 2f09 a7bd c7d7 4b3e fb98 c23d
00000140: 7c18 9dbc 282e a93e 59b9 a03d 585b 3b3b
00000150: 2978 8f3e 2f9f 8e3e 15fa 8a3d c05d 783e
00000160: ad1c 473d ca02 013d 6f22 623e 1207 063d
00000170: 9d20 a23c 7ec8 593d 2151 0c3e 3211 933d
00000180: 3ff3 cd3d 1a96 21bd e047 943d 8305 b1bd
00000190: 1bde 923d 1556 0f3e 2e48 503e 4968 123e
000001a0: 51a4 1d3e 25e4 f63d 4919 603c c363 163e
000001b0: 2fce d23e de49 a83e 2b47 2b3e c090 e83d
000001c0: 13f4 a73b f344 e03d c7e6 8b3c 2299 d33d
000001d0: 88b3 5c3b 2bcb fd3d 0eb6 82be e58f 433e
000001e0: 1ed3 e83c 8c8a 343d b6cf 3b3b f447 243e
000001f0: 6c89 88bd 7935 ed3d ab1d 373e a8ee 053e
00000200: f7a6 1bbd 227f 41bc b778 c63d 5cf7 0a3e
00000210: 5d62 2b3d d570 0a3e 85e4 383e bcb4 853e
00000220: 1dc8 a63e 73d1 6e3e d75c 153d b7b4 e93d
00000230: 728a 063d c6df 743d d05a da3d ae15 5e3e
00000240: e8c5 a03c 1e8b 933e 1a1d bd3d 5d6a 9c3c
00000250: 131a 8d3e f9cf ba3e 1ab8 fabb 0fe2 903d
00000260: a6b7 06bd 8d23 383e e52c 663d f46f b53d
00000270: 5503 1a3d bbaf 493e 102f b23d 9f82 e13d
00000280: 3cca 403d 0de6 a4bd 6fc7 be3d 1df6 4cbd
00000290: ab06 8a3e ce8f 63bd eefa 0e3e 6a5a 193e
000002a0: 1e8f 9c3e 133c c03d 68bb 01bd a71f 3d3e
000002b0: c8be 973e 67fb d23d 7a1b 3c3e 3a08 90bc
000002c0: 24b5 d7bb a18c 283e a2d7 f4bc 338c 19bd
000002d0: 1b8a 7b3d 06bb a13d a72f edbd 1f11 e33d
000002e0: eb4a b73d 30d7 d13c fc15 1d3b 8da1 0d3e
000002f0: 2125 1abc 8fbf 7b3d 1b13 3abd 897d 1d3e
00000300: beb5 233c bee9 55bc 56e4 d1bd e743 03bc
00000310: 6a05 c43d 9c1c 663d eea6 ffbd 66be c53d
00000320: d386 4cbc 5d79 0d3d 02bf 853d 21e6 a03d
00000330: 126c e9bd 9da2 b03d a575 f2bd 7af0 94bc
00000340: 0452 ebbd e28f 51bd a134 00bd 8459 16bd
00000350: 825e 21bd 44e7 c5bb 5e04 c83d 6198 aa3c
00000360: 6c39 8f3d a3af ae3c 94f2 893d a28b 0fbd
00000370: 0b53 95bc 360d 08bb 02ed 0bbe 9c4b 03be
00000380: 9ad3 45bc d436 9cbd 825d ddbc c3ec 55bd
00000390: 7324 8abc a51a 6a3d 0373 8fbd 9a66 9a3d
000003a0: 23ca 2ebc c37c fdbd dbca 04be 5258 01be
000003b0: 5347 bebd a9e7 99bd a19b efbc ed3e 54bd
000003c0: ae79 b8bd 8d32 86bd 9f1d 8fbd c698 be3d
000003d0: 533a 90bd 8779 e8bd 0026 073d 9f94 bcbc
000003e0: 7bd1 853d 6a97 4a3d 34b1 b53d 2d54 dfbd
000003f0: 497e 8f3d b4dd 9e3d 7d64 b3bd 8853 b03d

bias f4 [32]
0.09552028 0.03884273 -0.0026736895 0.053278524 0.090270355 0.08641703 0.013513744 -0.13319796
0.13921776 0.19842362 0.05567563 0.0074584223 -0.117089964 -0.014126887 0.059381086 -0.103149585
0.017362803 0.081373714 0.12637475 -0.0064164125 -0.107676566 -0.070679605 0.20887567 -0.010352944
0.15931307 0.054853644 0.07599265 0.05837598 -0.05823594 0.0049545923 0.046022836 -0.07754567
00000000: 23a0 c33d 8e19 1f3d 1139 2fbb 953a 5a3d
00000010: aadf b83d 69fb b03d c068 5d3c 0c65 08be
00000020: 1a8f 0e3e 902f 4b3e 210c 643d c865 f43b
00000030: ddcc efbd 7574 67bc 9539 733d 1740 d3bd
00000040: 703c 8e3c 43a7 a63d 6268 013e c540 d2bb
00000050: 8885 dcbd 78c0 90bd 81e3 553e 659f 29bc
00000060: f722 233e 37ae 603d 09a2 9b3d a71b 6f3d
00000070: cf88 6ebd 225a a23b 7182 3c3d 44d0 9ebd

weight f4 [1, 32]
-0.16619904 -0.10262173 -0.19666325 0.038172506 -0.25860617 0.07899615 0.15317762 0.013394242
-0.15487278 -0.25441527 0.063792065 0.11992441 0.13169302 -0.17615896 0.03610903 0.1511702
0.014954467 -0.19705135 -0.26352796 0.06345956 0.057156138 0.13739313 -0.21099167 0.05487377
-0.15365328 -0.15469345 0.083503015 -0.25338545 0.1158792 0.06456267 -0.20320408 0.0669051
00000000: 1530 2abe 572b d2bd 1762 49be c65a 1c3d
00000010: 0768 84be bcc8 a13d 98da 1c3e 8673 5b3c
00000020: f896 1ebe b842 82be 6aa5 823d ee9a f53d
00000030: 89da 063e 0463 34be 10e7 133d 5ccc 1a3e
00000040: 9503 753c d4c7 49be 23ed 86be 16f7 813d
00000050: 8e1c 6a3d c9b0 0c3e 330e 58be 51c3 603d
00000060: 4957 1dbe f667 1ebe a103 ab3d bdbb 81be
00000070: 1352 ed3d 6f39 843d bb14 50be 8b05 893d
