app/model.pt (torch, 63085 bytes, 13 tensors)

weight f4 [128, 14]
000000 a8 1f 3c 3e f3 10 75 3e f0 27 76 bd 0b 7c 8c 3e
       0.18371451 0.23932247 -0.06009668 0.27438387
000010 ad 94 5d bd 7f 39 1e 3c 90 aa 23 be c3 98 2b 3e
       -0.054096866 0.009657263 -0.15983033 0.16757493
000020 42 57 5a 3e 71 b7 2e be 4d 32 5c 3e a8 55 5f 3d
       0.21322349 -0.17062165 0.21503563 0.054525048
000030 ca 3d 47 3e 7c ea bc 3d 61 cb d3 3d 56 f0 eb bc
       0.19457164 0.09224412 0.10341526 -0.028801125
000040 14 db 41 3e 32 9a 4f 3d 38 cb 00 be cc d8 77 3d
       0.18931228 0.05068416 -0.12577522 0.060509488
000050 50 2b 13 be d0 7b 09 bd 72 84 f0 bd 38 e2 37 3e
       -0.14371991 -0.033565342 -0.11744012 0.1795739
000060 dc 25 6f be 1c 9b 05 be 98 ee c8 bd 91 46 25 be
       -0.23354286 -0.13047451 -0.09811133 -0.161402
000070 6c 4d 5e 3d 8c 1e 82 be b6 48 85 3e 5c b5 81 be
       0.054273054 -0.2541393 0.26032037 -0.2533368
000080 d0 5b 48 3e bc c1 64 3d 3c 38 89 bd 37 0e 1b 3e
       0.19566274 0.055848822 -0.06700179 0.15142141
000090 d0 3e eb 3c 2f f1 46 3e ad a5 53 3d 97 bf 82 bd
       0.028716475 0.19427942 0.051671673 -0.06384199
0000a0 38 58 95 3d d0 4e bd bd 8d 5e f9 3d ba 9a 87 3e
       0.07292217 -0.09243548 0.12176237 0.26485234
0000b0 30 4a 39 3e a8 d5 f8 bd ad 24 3f 3e 93 5e 8a 3d
       0.18094707 -0.12150127 0.18666334 0.0675632
0000c0 66 04 29 3e e8 6b 1c be 44 61 6f be 2b d9 dc bd
       0.16505584 -0.15275538 -0.23376948 -0.10783609
0000d0 5b ca 27 be 48 84 69 3e e7 80 cb 3d 37 5d 0a 3e
       -0.16385786 0.22804368 0.099366955 0.13512121
0000e0 2e 93 0a 3e 9a f8 0f 3c 22 06 6c 3e ae ad 4c be
       0.13532707 0.008787299 0.23049214 -0.19988129
0000f0 78 e5 f4 3c 99 92 35 be a0 b0 00 3e 46 b2 b5 bd
       0.029894575 -0.17731704 0.12567377 -0.088718936
000100 ab 97 be 3d de 20 7f bd d6 39 80 3e c6 e1 23 be
       0.09306272 -0.062287204 0.25044125 -0.16004094
000110 bd ea ee bd 0e 88 37 be 00 d8 58 3e cd 6d af 3d
       -0.116658665 -0.17922994 0.21176147 0.08565865
000120 ed e5 72 3e b7 b1 68 be 02 c7 87 be 6a 9d 5b be
       0.23720522 -0.22724043 -0.26519018 -0.21446767
000130 9d ed 55 be 0f 4c ca 3d da bf a6 3d 8f 3f 58 3e
       -0.20891424 0.09877788 0.081420615 0.21117996
000140 0f ee 21 be d8 02 52 be 24 28 df 3d cc 38 e4 bd
       -0.15813468 -0.20508897 0.10896328 -0.11143646
000150 28 a3 45 3e 98 3a 39 bd b1 a5 24 3e f4 c1 70 be
       0.1930052 -0.045221895 0.16078831 -0.23511487
000160 56 5f f6 bd 55 53 ef 3d 46 13 ac 3d 71 40 af bd
       -0.12029903 0.11685816 0.084021136 -0.08557213
000170 6e 0d 2a 3e f3 4d 29 3e 0d 9c 25 be 60 0a 03 be
       0.16606686 0.16533642 -0.1617281 -0.12796926
000180 7a 76 81 3e ef eb 05 be e3 1c 34 bd c8 c1 5a be
       0.25285703 -0.13078283 -0.04397286 -0.21362984
000190 07 30 f7 bd 70 89 ac 3d 16 3d 9c bc 5e 3d 6e be
       -0.12069707 0.084246516 -0.019072097 -0.23265597
0001a0 bd 2e dd 3c e8 70 37 be aa 17 59 be 52 db 04 be
       0.026999826 -0.17914164 -0.21200433 -0.12974289
0001b0 c5 6a 6e be 57 f1 3b be e3 31 9d 3e b9 af b5 3d
       -0.23282917 -0.18353783 0.30702123 0.08871407
0001c0 e9 ab a8 3d bb 40 7f be 2f be 33 be 60 30 b6 bd
       0.08235914 -0.24927036 -0.17553018 -0.088959455
0001d0 06 2e 2b 3d 1b d0 70 be bb d6 eb bd 47 d7 23 be
       0.04179194 -0.23516886 -0.11515566 -0.1600009
0001e0 2d 28 42 3a cb ab cb bd 68 b7 97 bc 5e 73 39 be
       0.00074064994 -0.09944876 -0.018520072 -0.18110415
0001f0 7c d9 3b be ac a9 1f be e4 7d b1 bd 41 cb 39 be
       -0.18344682 -0.15592068 -0.0866659 -0.18143941
000200 d3 ee 64 3e 91 da 4a bd 7a c2 81 3e 9e 01 ba 3d
       0.22356729 -0.049524847 0.25343686 0.0908234
000210 27 ac 72 be 2a 89 30 3e a3 b6 99 bd 1f c2 ad bd
       -0.23698483 0.17239824 -0.07505538 -0.08484291
000220 7a 6d 68 be b6 96 93 be 84 33 a5 3d 42 b6 81 bd
       -0.22698012 -0.2882592 0.080664665 -0.06333591
000230 7b e1 0e 3e fb 8b 45 be ad 5b 51 3e 75 df 61 be
       0.13953201 -0.1929168 0.20445128 -0.22057898
000240 c2 5c 4f bd 61 bf c1 3d 8c 26 30 3e dc 3b 41 3e
       -0.05062557 0.09460331 0.17202204 0.18870491
000250 4e cd 78 3e 42 fb 67 be 72 52 bb 3d bb 6a e0 bd
       0.24297068 -0.22654441 0.091465846 -0.10957857
000260 68 2f 6a bc 55 0c 7c be ea bc 8a 3e cf 69 5a be
       -0.014293529 -0.2461408 0.27097255 -0.21329425
000270 03 ef 0b 3e 91 b6 82 3d fa f7 a6 3d 68 86 f1 bd
       0.13665394 0.06382478 0.081527665 -0.11793214
000280 d5 17 83 3e a9 f1 33 3d d9 b5 03 3d a1 3b 86 be
       0.2560412 0.043931637 0.032155845 -0.26217368
000290 c8 42 fd 3d 6b f2 50 bd bc aa f4 bd e9 ee 3e 3e
       0.12366253 -0.051012438 -0.119466275 0.18645824
0002a0 6d 8c 91 3d 02 29 c0 bd 80 93 d0 bd d3 cb 4d 3c
       0.07106862 -0.093828216 -0.101843834 0.0125608025
0002b0 79 2c 1e 3e f4 98 fe bd 35 0b 24 be ce 6a 14 bd
       0.15446652 -0.12431517 -0.160199 -0.03623467
0002c0 90 33 17 be ea 55 fe 3d d3 7a 5a 3e 15 9d 67 be
       -0.14765763 0.124187306 0.21335916 -0.22618516
0002d0 18 63 c1 3d ed c1 49 3e f4 7f 09 3d 9a 69 92 bd
       0.09442729 0.19702883 0.03356929 -0.07149048
0002e0 82 34 2a 3e 3f b0 2c 3e cc 66 c3 3d 19 51 d4 bd
       0.16621593 0.16864108 0.09541091 -0.10367031
0002f0 3a cb b4 bd fb ef 60 3d 6b d7 09 bd 1d 19 a4 bd
       -0.08827825 0.054916363 -0.033652704 -0.080126025
000300 b7 c6 30 3e 3e 7e 75 3e 49 75 02 bc 67 95 b4 ba
       0.17263304 0.23973939 -0.007962533 -0.0013777436
000310 9b 3f 23 3c a4 52 a7 3b f8 40 90 3d 95 02 d0 3d
       0.009963895 0.005106287 0.07043642 0.101567425
000320 dd ea 75 be 68 b5 df bd b4 75 61 3e b4 10 df 3d
       -0.24015374 -0.10923272 0.22017556 0.10891858
000330 70 58 0b bd 7d 22 32 be 38 c8 32 be c2 94 71 be
       -0.034019887 -0.17395969 -0.1745919 -0.23591903
000340 b3 f3 cf bd 9a 51 bf 3d 20 21 56 3e 1b 17 16 3e
       -0.10153904 0.09341736 0.20911074 0.14657252
000350 b3 60 47 be 8b 88 11 be ba 4d 02 bc d8 95 99 3e
       -0.19470482 -0.14212243 -0.007953102 0.29997134
000360 85 81 85 3d 1a 56 98 bd 5e 00 04 3e 1d a9 c6 bd
       0.065188445 -0.074382976 0.12890765 -0.097002245
000370 d1 b5 f7 bd d4 3f 67 3e e8 1e a1 bd a6 fc 77 bd
       -0.120952256 0.22582942 -0.07867223 -0.06054368
000380 bf 77 8b be 4a 9f 2d 3e dd e2 58 3e 03 71 08 3e
       -0.27239797 0.16955295 0.21180291 0.1332436
000390 9d 01 29 be e2 96 83 be 5f b3 55 be cb 53 65 3e
       -0.16504522 -0.25701052 -0.20869206 0.22395246
0003a0 d5 f6 17 3e 20 97 7a 3e d3 54 0d 3e be b1 bd 3d
       0.14840253 0.24471712 0.13801889 0.09262417
0003b0 32 71 e3 38 d3 26 2f be 06 4b 7e be 68 60 95 be
       0.00010845288 -0.17104654 -0.24833307 -0.29175115
0003c0 08 5a fc 3d ac 5d 06 be 24 72 e5 bc 6f 80 1d be
       0.123218596 -0.1312167 -0.028008528 -0.15381025
0003d0 2d 41 8a bd da b2 4d be c2 9a 58 be f7 e5 f0 3d
       -0.067507125 -0.20087758 -0.21152785 0.11762612
0003e0 3f ae 66 bd 34 bb 3d 3e 48 04 36 bd 93 d3 47 be
       -0.056318518 0.18528444 -0.044437677 -0.19514303
0003f0 64 63 39 bd 33 a3 c6 bd 27 31 5f bd 5d 04 62 be
       -0.045260802 -0.096990965 -0.054490235 -0.22071977

bias f4 [128]
000000 c4 24 73 be a3 26 66 3e 80 01 42 bc 5a 39 de bd
       -0.23744494 0.22475676 -0.011841178 -0.10850783
000010 e6 3c 8b bd b2 03 6b be 62 a9 56 3e 9d e5 54 bc
       -0.06798725 -0.22950628 0.20963052 -0.012994197
000020 ea de 19 be 3c 51 4f be 7e 7c 26 3e f9 dc 2f bd
       -0.15026441 -0.20245832 0.16258428 -0.042935345
000030 39 7e 1c bb c3 80 55 bd 32 ff f9 bd 1b 95 93 3d
       -0.0023878946 -0.05212475 -0.12206878 0.07206174
000040 ae f5 63 3e 2e 7e ea bd 3e 1b 17 3d 60 b0 49 be
       0.22261688 -0.11449848 0.036891215 -0.19696188
000050 6d 9d a2 bd 9a 81 60 3e d9 ae a6 3c 65 f3 7e 3e
       -0.07940183 0.21924439 0.020347046 0.24897535
000060 f1 2e ef bc e8 01 29 be 12 d2 20 be b6 81 76 3e
       -0.029197188 -0.16504633 -0.15705135 0.24072918
000070 aa b4 22 be f2 ca 1e 3e 23 ef 87 3d 74 17 d3 3d
       -0.1588923 0.15507105 0.066374086 0.10307208
000080 87 46 20 3e 2d b1 35 bd 16 55 4a 3e 71 c0 75 be
       0.15651904 -0.04435842 0.1975902 -0.23999192
000090 30 92 b7 bd 24 3b 54 3e df af b7 3d 98 56 04 bd
       -0.0896343 0.20725685 0.089690916 -0.032309145
0000a0 9e 7f 8d bd 69 41 15 be 44 1a 24 3e 13 5b 7a 3c
       -0.06909107 -0.14575733 0.16025645 0.015280503
0000b0 4f 2e e6 3c 25 ee bf 3d 27 61 5a 3e 17 59 19 be
       0.028098254 0.09371594 0.21326123 -0.14975391
0000c0 d5 9c 8a bd 76 c9 51 3e 90 6e 35 3e f4 67 04 be
       -0.067681946 0.20487007 0.17717957 -0.1293028
0000d0 1d 1f 83 be b6 4d 17 3d 3b 6f 25 3e 1e 4e b0 3d
       -0.25609675 0.036939345 0.16155712 0.0860865
0000e0 7b 16 37 3e 65 00 43 be b8 ad f9 3d 4b cf 1d be
       0.1787967 -0.19043119 0.12191337 -0.15411107
0000f0 10 da 08 3e 13 f2 36 3e 65 1f 9a 3d 2f 98 66 3e
       0.13364434 0.17865781 0.07525519 0.22518991
000100 6e b9 37 be a1 bd 59 be 08 39 7e be 67 ba 42 3e
       -0.1794183 -0.21263744 -0.24826443 0.1901642
000110 f2 b8 cb 3d 1f f3 34 be 7b 9a f7 3d c9 6b 81 3e
       0.09947385 -0.17670868 0.12090012 0.25277546
000120 f5 81 81 be c5 67 62 3e 02 e5 6d 3d 4b 6d f7 3b
       -0.25294462 0.22109897 0.058079727 0.0075508705
000130 4d 50 82 3e 0c dd 8e 3e 14 56 ed 3d 12 05 6c 3e
       0.2545189 0.2790302 0.11588684 0.23048809
000140 d7 b7 fb 3d 95 d0 20 3d dd 93 5d be 53 a4 80 3d
       0.12290924 0.03926142 -0.21638437 0.06281342
000150 39 68 39 be 93 8b c8 3d 39 81 24 3d 65 85 d2 3b
       -0.18106164 0.09792247 0.0401623 0.0064245933
000160 30 db 28 be 90 fe 1d be 38 54 42 3e c5 4e 11 3e
       -0.16489863 -0.15429139 0.1897744 0.14190204
000170 b5 6b 1b 3e e0 60 b1 bd 0f d8 0e bd f8 c2 70 bd
       0.15177806 -0.086610556 -0.03487402 -0.058779687
000180 7a dd 45 3e 6c d2 f8 bd 5d c6 29 3e d9 87 4c 3e
       0.19322768 -0.1214951 0.16579576 0.19973697
000190 a5 4a 7a be 32 7a 1c b8 71 b1 45 bd c7 50 1b be
       -0.24442537 -3.73071e-05 -0.048264924 -0.15167533
0001a0 3d 38 f0 3d 75 8e 0f bd 13 5d 5f 3e 2e a5 3a be
       0.117294766 -0.035047967 0.21812849 -0.18227074
0001b0 d4 dc 05 3e e3 4a 50 be 13 89 07 be 6a e9 13 3d
       0.1307252 -0.20341067 -0.13235883 0.036111273
0001c0 67 39 60 3e 53 16 1f 3e da d3 4e be 44 69 28 3d
       0.21896897 0.1553586 -0.20198002 0.041116014
0001d0 66 46 11 be 86 96 dd 3c 4d ba 4d be 4b 94 80 bd
       -0.14187011 0.027049314 -0.200906 -0.06278285
0001e0 fa a1 38 3e 19 6b 80 be 2b 6c 81 be a1 c3 9f 3d
       0.18030539 -0.2508171 -0.25277838 0.07800985
0001f0 9f 59 21 3d c8 64 44 bd 95 61 62 3e 76 f0 18 be
       0.03939211 -0.047947675 0.22107537 -0.14935479

weight f4 [128]
000000 00 00 80 3f 00 00 80 3f 00 00 80 3f 00 00 80 3f
       1.0 1.0 1.0 1.0
000010 00 00 80 3f 00 00 80 3f 00 00 80 3f 00 00 80 3f
       1.0 1.0 1.0 1.0
000020 00 00 80 3f 00 00 80 3f 00 00 80 3f 00 00 80 3f
       1.0 1.0 1.0 1.0
000030 00 00 80 3f 00 00 80 3f 00 00 80 3f 00 00 80 3f
       1.0 1.0 1.0 1.0
000040 00 00 80 3f 00 00 80 3f 00 00 80 3f 00 00 80 3f
       1.0 1.0 1.0 1.0
000050 00 00 80 3f 00 00 80 3f 00 00 80 3f 00 00 80 3f
       1.0 1.0 1.0 1.0
000060 00 00 80 3f 00 00 80 3f 00 00 80 3f 00 00 80 3f
       1.0 1.0 1.0 1.0
000070 00 00 80 3f 00 00 80 3f 00 00 80 3f 00 00 80 3f
       1.0 1.0 1.0 1.0
000080 00 00 80 3f 00 00 80 3f 00 00 80 3f 00 00 80 3f
       1.0 1.0 1.0 1.0
000090 00 00 80 3f 00 00 80 3f 00 00 80 3f 00 00 80 3f
       1.0 1.0 1.0 1.0
0000a0 00 00 80 3f 00 00 80 3f 00 00 80 3f 00 00 80 3f
       1.0 1.0 1.0 1.0
0000b0 00 00 80 3f 00 00 80 3f 00 00 80 3f 00 00 80 3f
       1.0 1.0 1.0 1.0
0000c0 00 00 80 3f 00 00 80 3f 00 00 80 3f 00 00 80 3f
       1.0 1.0 1.0 1.0
0000d0 00 00 80 3f 00 00 80 3f 00 00 80 3f 00 00 80 3f
       1.0 1.0 1.0 1.0
0000e0 00 00 80 3f 00 00 80 3f 00 00 80 3f 00 00 80 3f
       1.0 1.0 1.0 1.0
0000f0 00 00 80 3f 00 00 80 3f 00 00 80 3f 00 00 80 3f
       1.0 1.0 1.0 1.0
000100 00 00 80 3f 00 00 80 3f 00 00 80 3f 00 00 80 3f
       1.0 1.0 1.0 1.0
000110 00 00 80 3f 00 00 80 3f 00 00 80 3f 00 00 80 3f
       1.0 1.0 1.0 1.0
000120 00 00 80 3f 00 00 80 3f 00 00 80 3f 00 00 80 3f
       1.0 1.0 1.0 1.0
000130 00 00 80 3f 00 00 80 3f 00 00 80 3f 00 00 80 3f
       1.0 1.0 1.0 1.0
000140 00 00 80 3f 00 00 80 3f 00 00 80 3f 00 00 80 3f
       1.0 1.0 1.0 1.0
000150 00 00 80 3f 00 00 80 3f 00 00 80 3f 00 00 80 3f
       1.0 1.0 1.0 1.0
000160 00 00 80 3f 00 00 80 3f 00 00 80 3f 00 00 80 3f
       1.0 1.0 1.0 1.0
000170 00 00 80 3f 00 00 80 3f 00 00 80 3f 00 00 80 3f
       1.0 1.0 1.0 1.0
000180 00 00 80 3f 00 00 80 3f 00 00 80 3f 00 00 80 3f
       1.0 1.0 1.0 1.0
000190 00 00 80 3f 00 00 80 3f 00 00 80 3f 00 00 80 3f
       1.0 1.0 1.0 1.0
0001a0 00 00 80 3f 00 00 80 3f 00 00 80 3f 00 00 80 3f
       1.0 1.0 1.0 1.0
0001b0 00 00 80 3f 00 00 80 3f 00 00 80 3f 00 00 80 3f
       1.0 1.0 1.0 1.0
0001c0 00 00 80 3f 00 00 80 3f 00 00 80 3f 00 00 80 3f
       1.0 1.0 1.0 1.0
0001d0 00 00 80 3f 00 00 80 3f 00 00 80 3f 00 00 80 3f
       1.0 1.0 1.0 1.0
0001e0 00 00 80 3f 00 00 80 3f 00 00 80 3f 00 00 80 3f
       1.0 1.0 1.0 1.0
0001f0 00 00 80 3f 00 00 80 3f 00 00 80 3f 00 00 80 3f
       1.0 1.0 1.0 1.0

bias f4 [128]
000000 00 00 00 00 00 00 00 00 00 00 00 00 00 00 00 00
       0.0 0.0 0.0 0.0
000010 00 00 00 00 00 00 00 00 00 00 00 00 00 00 00 00
       0.0 0.0 0.0 0.0
000020 00 00 00 00 00 00 00 00 00 00 00 00 00 00 00 00
       0.0 0.0 0.0 0.0
000030 00 00 00 00 00 00 00 00 00 00 00 00 00 00 00 00
       0.0 0.0 0.0 0.0
000040 00 00 00 00 00 00 00 00 00 00 00 00 00 00 00 00
       0.0 0.0 0.0 0.0
000050 00 00 00 00 00 00 00 00 00 00 00 00 00 00 00 00
       0.0 0.0 0.0 0.0
000060 00 00 00 00 00 00 00 00 00 00 00 00 00 00 00 00
       0.0 0.0 0.0 0.0
000070 00 00 00 00 00 00 00 00 00 00 00 00 00 00 00 00
       0.0 0.0 0.0 0.0
000080 00 00 00 00 00 00 00 00 00 00 00 00 00 00 00 00
       0.0 0.0 0.0 0.0
000090 00 00 00 00 00 00 00 00 00 00 00 00 00 00 00 00
       0.0 0.0 0.0 0.0
0000a0 00 00 00 00 00 00 00 00 00 00 00 00 00 00 00 00
       0.0 0.0 0.0 0.0
0000b0 00 00 00 00 00 00 00 00 00 00 00 00 00 00 00 00
       0.0 0.0 0.0 0.0
0000c0 00 00 00 00 00 00 00 00 00 00 00 00 00 00 00 00
       0.0 0.0 0.0 0.0
0000d0 00 00 00 00 00 00 00 00 00 00 00 00 00 00 00 00
       0.0 0.0 0.0 0.0
0000e0 00 00 00 00 00 00 00 00 00 00 00 00 00 00 00 00
       0.0 0.0 0.0 0.0
0000f0 00 00 00 00 00 00 00 00 00 00 00 00 00 00 00 00
       0.0 0.0 0.0 0.0
000100 00 00 00 00 00 00 00 00 00 00 00 00 00 00 00 00
       0.0 0.0 0.0 0.0
000110 00 00 00 00 00 00 00 00 00 00 00 00 00 00 00 00
       0.0 0.0 0.0 0.0
000120 00 00 00 00 00 00 00 00 00 00 00 00 00 00 00 00
       0.0 0.0 0.0 0.0
000130 00 00 00 00 00 00 00 00 00 00 00 00 00 00 00 00
       0.0 0.0 0.0 0.0
000140 00 00 00 00 00 00 00 00 00 00 00 00 00 00 00 00
       0.0 0.0 0.0 0.0
000150 00 00 00 00 00 00 00 00 00 00 00 00 00 00 00 00
       0.0 0.0 0.0 0.0
000160 00 00 00 00 00 00 00 00 00 00 00 00 00 00 00 00
       0.0 0.0 0.0 0.0
000170 00 00 00 00 00 00 00 00 00 00 00 00 00 00 00 00
       0.0 0.0 0.0 0.0
000180 00 00 00 00 00 00 00 00 00 00 00 00 00 00 00 00
       0.0 0.0 0.0 0.0
000190 00 00 00 00 00 00 00 00 00 00 00 00 00 00 00 00
       0.0 0.0 0.0 0.0
0001a0 00 00 00 00 00 00 00 00 00 00 00 00 00 00 00 00
       0.0 0.0 0.0 0.0
0001b0 00 00 00 00 00 00 00 00 00 00 00 00 00 00 00 00
       0.0 0.0 0.0 0.0
0001c0 00 00 00 00 00 00 00 00 00 00 00 00 00 00 00 00
       0.0 0.0 0.0 0.0
0001d0 00 00 00 00 00 00 00 00 00 00 00 00 00 00 00 00
       0.0 0.0 0.0 0.0
0001e0 00 00 00 00 00 00 00 00 00 00 00 00 00 00 00 00
       0.0 0.0 0.0 0.0
0001f0 00 00 00 00 00 00 00 00 00 00 00 00 00 00 00 00
       0.0 0.0 0.0 0.0

running_mean f4 [128]
000000 00 00 00 00 00 00 00 00 00 00 00 00 00 00 00 00
       0.0 0.0 0.0 0.0
000010 00 00 00 00 00 00 00 00 00 00 00 00 00 00 00 00
       0.0 0.0 0.0 0.0
000020 00 00 00 00 00 00 00 00 00 00 00 00 00 00 00 00
       0.0 0.0 0.0 0.0
000030 00 00 00 00 00 00 00 00 00 00 00 00 00 00 00 00
       0.0 0.0 0.0 0.0
000040 00 00 00 00 00 00 00 00 00 00 00 00 00 00 00 00
       0.0 0.0 0.0 0.0
000050 00 00 00 00 00 00 00 00 00 00 00 00 00 00 00 00
       0.0 0.0 0.0 0.0
000060 00 00 00 00 00 00 00 00 00 00 00 00 00 00 00 00
       0.0 0.0 0.0 0.0
000070 00 00 00 00 00 00 00 00 00 00 00 00 00 00 00 00
       0.0 0.0 0.0 0.0
000080 00 00 00 00 00 00 00 00 00 00 00 00 00 00 00 00
       0.0 0.0 0.0 0.0
000090 00 00 00 00 00 00 00 00 00 00 00 00 00 00 00 00
       0.0 0.0 0.0 0.0
0000a0 00 00 00 00 00 00 00 00 00 00 00 00 00 00 00 00
       0.0 0.0 0.0 0.0
0000b0 00 00 00 00 00 00 00 00 00 00 00 00 00 00 00 00
       0.0 0.0 0.0 0.0
0000c0 00 00 00 00 00 00 00 00 00 00 00 00 00 00 00 00
       0.0 0.0 0.0 0.0
0000d0 00 00 00 00 00 00 00 00 00 00 00 00 00 00 00 00
       0.0 0.0 0.0 0.0
0000e0 00 00 00 00 00 00 00 00 00 00 00 00 00 00 00 00
       0.0 0.0 0.0 0.0
0000f0 00 00 00 00 00 00 00 00 00 00 00 00 00 00 00 00
       0.0 0.0 0.0 0.0
000100 00 00 00 00 00 00 00 00 00 00 00 00 00 00 00 00
       0.0 0.0 0.0 0.0
000110 00 00 00 00 00 00 00 00 00 00 00 00 00 00 00 00
       0.0 0.0 0.0 0.0
000120 00 00 00 00 00 00 00 00 00 00 00 00 00 00 00 00
       0.0 0.0 0.0 0.0
000130 00 00 00 00 00 00 00 00 00 00 00 00 00 00 00 00
       0.0 0.0 0.0 0.0
000140 00 00 00 00 00 00 00 00 00 00 00 00 00 00 00 00
       0.0 0.0 0.0 0.0
000150 00 00 00 00 00 00 00 00 00 00 00 00 00 00 00 00
       0.0 0.0 0.0 0.0
000160 00 00 00 00 00 00 00 00 00 00 00 00 00 00 00 00
       0.0 0.0 0.0 0.0
000170 00 00 00 00 00 00 00 00 00 00 00 00 00 00 00 00
       0.0 0.0 0.0 0.0
000180 00 00 00 00 00 00 00 00 00 00 00 00 00 00 00 00
       0.0 0.0 0.0 0.0
000190 00 00 00 00 00 00 00 00 00 00 00 00 00 00 00 00
       0.0 0.0 0.0 0.0
0001a0 00 00 00 00 00 00 00 00 00 00 00 00 00 00 00 00
       0.0 0.0 0.0 0.0
0001b0 00 00 00 00 00 00 00 00 00 00 00 00 00 00 00 00
       0.0 0.0 0.0 0.0
0001c0 00 00 00 00 00 00 00 00 00 00 00 00 00 00 00 00
       0.0 0.0 0.0 0.0
0001d0 00 00 00 00 00 00 00 00 00 00 00 00 00 00 00 00
       0.0 0.0 0.0 0.0
0001e0 00 00 00 00 00 00 00 00 00 00 00 00 00 00 00 00
       0.0 0.0 0.0 0.0
0001f0 00 00 00 00 00 00 00 00 00 00 00 00 00 00 00 00
       0.0 0.0 0.0 0.0

running_var f4 [128]
000000 00 00 80 3f 00 00 80 3f 00 00 80 3f 00 00 80 3f
       1.0 1.0 1.0 1.0
000010 00 00 80 3f 00 00 80 3f 00 00 80 3f 00 00 80 3f
       1.0 1.0 1.0 1.0
000020 00 00 80 3f 00 00 80 3f 00 00 80 3f 00 00 80 3f
       1.0 1.0 1.0 1.0
000030 00 00 80 3f 00 00 80 3f 00 00 80 3f 00 00 80 3f
       1.0 1.0 1.0 1.0
000040 00 00 80 3f 00 00 80 3f 00 00 80 3f 00 00 80 3f
       1.0 1.0 1.0 1.0
000050 00 00 80 3f 00 00 80 3f 00 00 80 3f 00 00 80 3f
       1.0 1.0 1.0 1.0
000060 00 00 80 3f 00 00 80 3f 00 00 80 3f 00 00 80 3f
       1.0 1.0 1.0 1.0
000070 00 00 80 3f 00 00 80 3f 00 00 80 3f 00 00 80 3f
       1.0 1.0 1.0 1.0
000080 00 00 80 3f 00 00 80 3f 00 00 80 3f 00 00 80 3f
       1.0 1.0 1.0 1.0
000090 00 00 80 3f 00 00 80 3f 00 00 80 3f 00 00 80 3f
       1.0 1.0 1.0 1.0
0000a0 00 00 80 3f 00 00 80 3f 00 00 80 3f 00 00 80 3f
       1.0 1.0 1.0 1.0
0000b0 00 00 80 3f 00 00 80 3f 00 00 80 3f 00 00 80 3f
       1.0 1.0 1.0 1.0
0000c0 00 00 80 3f 00 00 80 3f 00 00 80 3f 00 00 80 3f
       1.0 1.0 1.0 1.0
0000d0 00 00 80 3f 00 00 80 3f 00 00 80 3f 00 00 80 3f
       1.0 1.0 1.0 1.0
0000e0 00 00 80 3f 00 00 80 3f 00 00 80 3f 00 00 80 3f
       1.0 1.0 1.0 1.0
0000f0 00 00 80 3f 00 00 80 3f 00 00 80 3f 00 00 80 3f
       1.0 1.0 1.0 1.0
000100 00 00 80 3f 00 00 80 3f 00 00 80 3f 00 00 80 3f
       1.0 1.0 1.0 1.0
000110 00 00 80 3f 00 00 80 3f 00 00 80 3f 00 00 80 3f
       1.0 1.0 1.0 1.0
000120 00 00 80 3f 00 00 80 3f 00 00 80 3f 00 00 80 3f
       1.0 1.0 1.0 1.0
000130 00 00 80 3f 00 00 80 3f 00 00 80 3f 00 00 80 3f
       1.0 1.0 1.0 1.0
000140 00 00 80 3f 00 00 80 3f 00 00 80 3f 00 00 80 3f
       1.0 1.0 1.0 1.0
000150 00 00 80 3f 00 00 80 3f 00 00 80 3f 00 00 80 3f
       1.0 1.0 1.0 1.0
000160 00 00 80 3f 00 00 80 3f 00 00 80 3f 00 00 80 3f
       1.0 1.0 1.0 1.0
000170 00 00 80 3f 00 00 80 3f 00 00 80 3f 00 00 80 3f
       1.0 1.0 1.0 1.0
000180 00 00 80 3f 00 00 80 3f 00 00 80 3f 00 00 80 3f
       1.0 1.0 1.0 1.0
000190 00 00 80 3f 00 00 80 3f 00 00 80 3f 00 00 80 3f
       1.0 1.0 1.0 1.0
0001a0 00 00 80 3f 00 00 80 3f 00 00 80 3f 00 00 80 3f
       1.0 1.0 1.0 1.0
0001b0 00 00 80 3f 00 00 80 3f 00 00 80 3f 00 00 80 3f
       1.0 1.0 1.0 1.0
0001c0 00 00 80 3f 00 00 80 3f 00 00 80 3f 00 00 80 3f
       1.0 1.0 1.0 1.0
0001d0 00 00 80 3f 00 00 80 3f 00 00 80 3f 00 00 80 3f
       1.0 1.0 1.0 1.0
0001e0 00 00 80 3f 00 00 80 3f 00 00 80 3f 00 00 80 3f
       1.0 1.0 1.0 1.0
0001f0 00 00 80 3f 00 00 80 3f 00 00 80 3f 00 00 80 3f
       1.0 1.0 1.0 1.0

weight f4 [64, 128]
000000 59 c9 5b bd 13 03 92 bd 55 95 b1 bc c1 c9 b8 bc
       -0.053658817 -0.071294926 -0.021677652 -0.022557141
000010 95 9b 4a 3d 3e f2 26 bc db 6a bc 3c 95 72 16 bd
       0.04946478 -0.010189591 0.023000171 -0.036730368
000020 6d d7 92 3d 4a 9a 98 3d b7 d1 ac bd c5 e2 e4 bc
       0.071699955 0.07451303 -0.084384374 -0.027940163
000030 2d 98 99 bd f0 79 04 3d 4f 27 9e bd 19 2d 2b bd
       -0.07499728 0.03234285 -0.07722341 -0.041791055
000040 5e 2a aa 3d dd db ac bd 90 8e 85 3d 76 ad f4 3b
       0.08308862 -0.08440373 0.06521332 0.007466967
000050 d5 bf 90 3d 13 bb 37 bd 88 63 58 3d 84 31 b2 3b
       0.07067839 -0.044856142 0.052829295 0.0054380316
000060 1a c3 de 3b 74 b3 61 3d 55 10 ac bd 70 81 9c bd
       0.0067981603 0.05510278 -0.084015526 -0.07641876
000070 88 1f a4 3d 29 67 59 bd e9 7a 82 bd 4d 38 1c bc
       0.080138266 -0.053076897 -0.063710995 -0.0095349075
000080 2c 4c 09 bd 00 e1 8d bc 88 8f 72 bd 61 a1 02 3d
       -0.03351991 -0.017319202 -0.059218913 0.031892184
000090 89 c3 9b bd 10 46 fd 3a 83 e0 3d 3d ee a9 40 3c
       -0.07605655 0.0019323248 0.04635669 0.011759264
0000a0 84 6a 40 3c 21 68 fc 3b f7 b9 fe bc 7a ef 89 bc
       0.011744145 0.007702843 -0.031094534 -0.016837824
0000b0 57 ab 18 bd 44 91 74 bd ed 15 55 bd d6 f2 b2 3d
       -0.037272777 -0.05970885 -0.052022863 0.087377235
0000c0 7b f8 a3 bc 33 a4 fd 3c a5 fc 64 3d 18 c2 46 bc
       -0.020015946 0.030962085 0.055905003 -0.0121312365
0000d0 76 c4 42 bd 47 58 85 bd 52 60 05 bd 8c 39 01 3d
       -0.04755064 -0.06510978 -0.03256256 0.03154902
0000e0 aa 24 a3 bd a5 d0 30 bc 67 9c e8 3c ea 00 89 3d
       -0.079659775 -0.010791932 0.028394891 0.066896275
0000f0 89 15 af 3c 2e c8 48 3c 02 72 62 3d 44 e3 11 3d
       0.021372573 0.012254758 0.055284508 0.035617128
000100 1d f7 f4 3c 68 7f e0 bc c1 28 91 bd f8 66 9c bc
       0.029902989 -0.027404502 -0.07087851 -0.019092068
000110 1e 21 ae bc 1f b2 a6 3a d6 e4 74 bc b9 ec f9 3c
       -0.021256026 0.0012717879 -0.014947137 0.030508386
000120 c3 97 70 3d 04 2a 28 bd 1a c3 ab bd 57 bf 39 bd
       0.05873848 -0.041055694 -0.08386822 -0.04534849
000130 b1 8f 42 bd aa d0 37 3d 2d ec 7e bd fb d2 5d bc
       -0.047500316 0.044876732 -0.062236954 -0.013539071
000140 29 43 c4 bc 24 1f 71 bd 68 bd 0e 3d 28 cf 16 bd
       -0.023957806 -0.05886759 0.0348486 -0.036818653
000150 b7 6b 20 bc 3a f7 89 bd a7 af 67 bc 45 47 f0 3b
       -0.009791306 -0.06736608 -0.014141 0.0073327147
000160 5a e5 0f bc 61 46 07 bd 8c 1c d7 3c 4f 9b bb bc
       -0.008782709 -0.033026103 0.02625873 -0.022901205
000170 ab 1a 5e bd 26 2f 90 bd 87 61 99 bc 16 b3 b5 bd
       -0.05422465 -0.07040243 -0.018723262 -0.088720486
000180 ae 8c 8b 3d b7 f4 2c bd f5 6d 2b bd 3c 78 41 3b
       0.06813942 -0.042225566 -0.04185291 0.0029521128
000190 75 b4 bb 3c cc 8c 08 bc e6 f5 62 3d e1 0c 53 bd
       0.022913197 -0.00833435 0.05541029 -0.051525954
0001a0 b1 b2 d8 3c 03 07 51 b9 06 41 93 bd 1c 9f 21 bd
       0.026452394 -0.00019934405 -0.071901366 -0.03945838
0001b0 c9 73 8d 3c 3d 54 8a 3c 25 a0 83 3d 19 cc 5c 3d
       0.017267125 0.016885871 0.064270295 0.05390558
0001c0 01 de 5a bd df df 2f bd cc 88 99 bc 42 58 8c bd
       -0.053434376 -0.04293811 -0.018741988 -0.06852771
0001d0 da 49 ee bc 3e d4 9e bd 70 28 e9 3c 95 c6 6a 3d
       -0.02908795 -0.07755326 0.028461665 0.05731829
0001e0 fc 95 e8 3a 97 96 81 bd 5f 16 89 bd fc f0 0c bd
       0.0017744894 -0.06327551 -0.0669372 -0.034409508
0001f0 c2 ca a7 3c 02 3a 49 bb 35 a7 83 3c a4 e9 9f 3d
       0.020482425 -0.0030704741 0.016070941 0.07808235
000200 c9 e7 dc 3c 46 c0 ac 3c 2d 21 f4 bb a9 b3 47 3d
       0.026965993 0.021087777 -0.007450244 0.04875532
000210 fc 0d aa 3d 8d 6f 82 bd fd 69 e5 bc a0 f7 2e bd
       0.083034486 -0.06368933 -0.02800464 -0.042716622
000220 70 5f 09 3d 09 55 34 3d c2 7e ce bc ad db ac bd
       0.033538282 0.04402641 -0.025206927 -0.08440337
000230 6b 91 b8 bc 02 42 e5 bc d7 55 c7 3b 4a 17 84 3c
       -0.022530278 -0.027985577 0.006083231 0.016124386
000240 65 a8 e4 3c e9 32 29 3d 1a 8e 49 3d 44 52 40 bd
       0.027912328 0.041308317 0.049207784 -0.046953455
000250 e2 6d bf bc 1d 3b dd bb f8 91 53 bd 4a 6b 3b 3d
       -0.023367826 -0.0067514316 -0.05165288 0.045756616
000260 e0 26 66 bd 58 fa 8a 3d 24 7a c5 3c 3c f1 04 3d
       -0.056189418 0.067860305 0.024106093 0.03245662
000270 5c 6f c6 3d e6 cf 95 bc 6d 18 c4 3c 01 45 92 3c
       0.09689209 -0.01828761 0.023937428 0.01785517
000280 d7 d8 3a bd 19 c8 6f 3d 85 cc 78 bd 4d 9c 35 bd
       -0.04561695 0.058540437 -0.06074192 -0.044338513
000290 c5 dd 31 3d a9 83 ba 3d 23 60 a2 bd f8 27 a0 bd
       0.043424387 0.091071434 -0.07928493 -0.078201234
0002a0 0f 09 57 3d 45 a2 56 bc fd 2a f6 bb 2e 1d fe bc
       0.052498873 -0.0131002115 -0.007512449 -0.031019773
0002b0 85 b5 34 bc 15 06 ba 3c 9d 3e 34 bd b0 26 a3 bc
       -0.011029606 0.022707978 -0.044005025 -0.019915909
0002c0 d3 ff 4c bb 84 14 9a bc 6a 2f bc 3c cf 11 29 bd
       -0.0031280413 -0.01880861 0.022971828 -0.04127675
0002d0 47 11 69 3d ad 3a d0 bb 79 5a 40 bd 67 bf 99 bd
       0.056901243 -0.006354651 -0.04696128 -0.0750721
0002e0 17 5a c5 bc 88 a5 02 3b 74 7a 26 bc 98 bf d4 3d
       -0.02409081 0.001993509 -0.010161031 0.10388106
0002f0 c7 61 c2 3b fa 43 cd bc 2b ed fa 3c 07 35 08 bd
       0.005932066 -0.025056828 0.030630669 -0.033253696
000300 63 b8 ca bc 7f d5 ac bc 3c 73 42 3d b8 e2 f1 3c
       -0.024746126 -0.021097897 0.047473177 0.029527053
000310 fe 30 90 3d 55 85 29 3d ed 6e 67 3c 4e 40 4f 3d
       0.070405945 0.04138692 0.014125568 0.050598435
000320 ce d7 e8 bb d7 e5 c9 bc 7b 21 e8 3d ad 8c 82 3d
       -0.007105804 -0.024645729 0.11334511 0.06374488
000330 c9 3f 52 3c b8 59 1d bd a7 49 4e 3d a6 65 e2 bd
       0.01283259 -0.03841564 0.05036321 -0.11054544
000340 e9 58 2e 3d 61 73 6e 3d c3 fa 08 3d 2e e7 49 bd
       0.04256526 0.058215503 0.03344227 -0.049292736
000350 d6 3f e0 bd d9 fc ee 3c 5e 8e 08 bd 15 a7 c1 3c
       -0.10949676 0.029173302 -0.033338897 0.023639241
000360 ea 4e 8d 3d 9e 3a 8c bd 97 5a 1f bb b1 3c 5d bd
       0.06899817 -0.06847118 -0.002431547 -0.054012958
000370 f6 9d 49 3d e3 1a 98 bd 83 3c 77 3c 81 a3 03 3d
       0.04922291 -0.07427003 0.015090111 0.03213835
000380 b7 e7 2b 3d ef fb d4 3d e7 cc 1e 3c 9b 62 96 bd
       0.041969027 0.10399615 0.009692407 -0.07343026
000390 2e 39 81 3d 3d 9e 2e bc 91 e2 cc bc bf 70 77 bd
       0.06309734 -0.010657844 -0.025010379 -0.060410257
0003a0 fa c5 d7 bc 5f d5 58 bd 9a 5d a2 3d 74 92 3d 3d
       -0.02633952 -0.05293786 0.07928009 0.046282247
0003b0 ad 5e 92 3d eb be e5 3d 9d 8b b6 bd 89 ce a9 bc
       0.07146964 0.11218055 -0.08913348 -0.020728366
0003c0 8f 47 66 bd 1c 70 7e bd c2 be a1 3d 7b 6b 85 3c
       -0.056220587 -0.062118635 0.07897712 0.016286602
0003d0 59 ab e4 3d 34 c7 89 3c f0 08 d1 bc 4e 58 1d bd
       0.111654945 0.01681862 -0.025516957 -0.038414292
0003e0 d5 bd de 3c 43 15 b4 3c 5a 32 e5 3b bb 0c 7d bd
       0.027190128 0.021982795 0.0069945278 -0.06177972
0003f0 f7 8d de bd 96 bb 45 bd c5 4c 4d 3d 14 b3 86 bd
       -0.108669214 -0.0482746 0.05012204 -0.06577125

bias f4 [64]
000000 f8 a0 ab bd 27 4f 96 3d 36 f0 9a 3d 45 1e 55 bd
       -0.08380312 0.07339316 0.07565348 -0.05203082
000010 57 ee 98 3d f0 15 8d bd 27 4c 8f 3d 49 78 a2 3d
       0.07467335 -0.0688895 0.06996947 0.07933099
000020 b2 14 8d 3d f0 f2 1d 3d 23 a0 38 bd 85 1e db bc
       0.06888713 0.03856176 -0.045074593 -0.026747951
000030 c9 15 54 3c 6b 19 25 3d 3f 61 9d 3d 1c 95 4e 3a
       0.012944647 0.040307444 0.07684564 0.00078804954
000040 8d 0f 09 3d f0 f2 60 bd f1 36 bb bc cf 4c 57 3d
       0.033462096 -0.054919183 -0.022853347 0.052563485
000050 e8 dd 1c 3c 6f 7f aa 3d c2 cd 87 bd 7b 75 21 bd
       0.009574391 0.08325087 -0.06631042 -0.03941868
000060 38 28 17 3d 4a f9 be bb 43 51 93 bd dd b8 65 3d
       0.03690359 -0.0058280574 -0.07193234 0.056084502
000070 3c de f0 bb 2f f9 99 3c 45 c0 78 3c 66 c6 12 bd
       -0.007350711 0.018795578 0.015182559 -0.03583374
000080 b7 35 84 bd 95 6c a2 bd 1c 01 8a 3d 2f d2 08 bd
       -0.06455558 -0.07930867 0.06738493 -0.03340357
000090 73 4f c2 3d eb 76 f5 bc d7 99 e0 3c 51 8e a4 3d
       0.0948781 -0.029963931 0.027417107 0.08034957
0000a0 8a 98 26 bd b6 56 a4 bd 17 33 d8 3c 7a 11 6b bd
       -0.040672816 -0.08024351 0.026391549 -0.057389714
0000b0 d6 8f 6b 3d 68 22 4e 3d d5 ae 8f 3d c9 80 81 bc
       0.05751022 0.05032578 0.070157684 -0.01580848
0000c0 bf a4 1b bd c4 2e 8a bd d3 c2 7f bd 47 7a ab 3d
       -0.03799891 -0.06747201 -0.06244166 0.08372932
0000d0 76 e1 c7 bc 77 80 45 3b f1 d9 05 3b 5c 5c 48 bd
       -0.0243995 0.0030136385 0.0020424093 -0.048916206
0000e0 3a 50 a4 3d 70 ef 18 bc 4c fe c5 bc 04 7a c1 3d
       0.080231145 -0.00933443 -0.02416911 0.09447101
0000f0 49 b5 35 3d f0 fe 74 3d 71 a7 85 3d e2 0d 7c bd
       0.04436234 0.05981344 0.065260775 -0.061536677

weight f4 [64]
000000 00 00 80 3f 00 00 80 3f 00 00 80 3f 00 00 80 3f
       1.0 1.0 1.0 1.0
000010 00 00 80 3f 00 00 80 3f 00 00 80 3f 00 00 80 3f
       1.0 1.0 1.0 1.0
000020 00 00 80 3f 00 00 80 3f 00 00 80 3f 00 00 80 3f
       1.0 1.0 1.0 1.0
000030 00 00 80 3f 00 00 80 3f 00 00 80 3f 00 00 80 3f
       1.0 1.0 1.0 1.0
000040 00 00 80 3f 00 00 80 3f 00 00 80 3f 00 00 80 3f
       1.0 1.0 1.0 1.0
000050 00 00 80 3f 00 00 80 3f 00 00 80 3f 00 00 80 3f
       1.0 1.0 1.0 1.0
000060 00 00 80 3f 00 00 80 3f 00 00 80 3f 00 00 80 3f
       1.0 1.0 1.0 1.0
000070 00 00 80 3f 00 00 80 3f 00 00 80 3f 00 00 80 3f
       1.0 1.0 1.0 1.0
000080 00 00 80 3f 00 00 80 3f 00 00 80 3f 00 00 80 3f
       1.0 1.0 1.0 1.0
000090 00 00 80 3f 00 00 80 3f 00 00 80 3f 00 00 80 3f
       1.0 1.0 1.0 1.0
0000a0 00 00 80 3f 00 00 80 3f 00 00 80 3f 00 00 80 3f
       1.0 1.0 1.0 1.0
0000b0 00 00 80 3f 00 00 80 3f 00 00 80 3f 00 00 80 3f
       1.0 1.0 1.0 1.0
0000c0 00 00 80 3f 00 00 80 3f 00 00 80 3f 00 00 80 3f
       1.0 1.0 1.0 1.0
0000d0 00 00 80 3f 00 00 80 3f 00 00 80 3f 00 00 80 3f
       1.0 1.0 1.0 1.0
0000e0 00 00 80 3f 00 00 80 3f 00 00 80 3f 00 00 80 3f
       1.0 1.0 1.0 1.0
0000f0 00 00 80 3f 00 00 80 3f 00 00 80 3f 00 00 80 3f
       1.0 1.0 1.0 1.0

bias f4 [64]
000000 00 00 00 00 00 00 00 00 00 00 00 00 00 00 00 00
       0.0 0.0 0.0 0.0
000010 00 00 00 00 00 00 00 00 00 00 00 00 00 00 00 00
       0.0 0.0 0.0 0.0
000020 00 00 00 00 00 00 00 00 00 00 00 00 00 00 00 00
       0.0 0.0 0.0 0.0
000030 00 00 00 00 00 00 00 00 00 00 00 00 00 00 00 00
       0.0 0.0 0.0 0.0
000040 00 00 00 00 00 00 00 00 00 00 00 00 00 00 00 00
       0.0 0.0 0.0 0.0
000050 00 00 00 00 00 00 00 00 00 00 00 00 00 00 00 00
       0.0 0.0 0.0 0.0
000060 00 00 00 00 00 00 00 00 00 00 00 00 00 00 00 00
       0.0 0.0 0.0 0.0
000070 00 00 00 00 00 00 00 00 00 00 00 00 00 00 00 00
       0.0 0.0 0.0 0.0
000080 00 00 00 00 00 00 00 00 00 00 00 00 00 00 00 00
       0.0 0.0 0.0 0.0
000090 00 00 00 00 00 00 00 00 00 00 00 00 00 00 00 00
       0.0 0.0 0.0 0.0
0000a0 00 00 00 00 00 00 00 00 00 00 00 00 00 00 00 00
       0.0 0.0 0.0 0.0
0000b0 00 00 00 00 00 00 00 00 00 00 00 00 00 00 00 00
       0.0 0.0 0.0 0.0
0000c0 00 00 00 00 00 00 00 00 00 00 00 00 00 00 00 00
       0.0 0.0 0.0 0.0
0000d0 00 00 00 00 00 00 00 00 00 00 00 00 00 00 00 00
       0.0 0.0 0.0 0.0
0000e0 00 00 00 00 00 00 00 00 00 00 00 00 00 00 00 00
       0.0 0.0 0.0 0.0
0000f0 00 00 00 00 00 00 00 00 00 00 00 00 00 00 00 00
       0.0 0.0 0.0 0.0

running_mean f4 [64]
000000 00 00 00 00 00 00 00 00 00 00 00 00 00 00 00 00
       0.0 0.0 0.0 0.0
000010 00 00 00 00 00 00 00 00 00 00 00 00 00 00 00 00
       0.0 0.0 0.0 0.0
000020 00 00 00 00 00 00 00 00 00 00 00 00 00 00 00 00
       0.0 0.0 0.0 0.0
000030 00 00 00 00 00 00 00 00 00 00 00 00 00 00 00 00
       0.0 0.0 0.0 0.0
000040 00 00 00 00 00 00 00 00 00 00 00 00 00 00 00 00
       0.0 0.0 0.0 0.0
000050 00 00 00 00 00 00 00 00 00 00 00 00 00 00 00 00
       0.0 0.0 0.0 0.0
000060 00 00 00 00 00 00 00 00 00 00 00 00 00 00 00 00
       0.0 0.0 0.0 0.0
000070 00 00 00 00 00 00 00 00 00 00 00 00 00 00 00 00
       0.0 0.0 0.0 0.0
000080 00 00 00 00 00 00 00 00 00 00 00 00 00 00 00 00
       0.0 0.0 0.0 0.0
000090 00 00 00 00 00 00 00 00 00 00 00 00 00 00 00 00
       0.0 0.0 0.0 0.0
0000a0 00 00 00 00 00 00 00 00 00 00 00 00 00 00 00 00
       0.0 0.0 0.0 0.0
0000b0 00 00 00 00 00 00 00 00 00 00 00 00 00 00 00 00
       0.0 0.0 0.0 0.0
0000c0 00 00 00 00 00 00 00 00 00 00 00 00 00 00 00 00
       0.0 0.0 0.0 0.0
0000d0 00 00 00 00 00 00 00 00 00 00 00 00 00 00 00 00
       0.0 0.0 0.0 0.0
0000e0 00 00 00 00 00 00 00 00 00 00 00 00 00 00 00 00
       0.0 0.0 0.0 0.0
0000f0 00 00 00 00 00 00 00 00 00 00 00 00 00 00 00 00
       0.0 0.0 0.0 0.0

running_var f4 [64]
000000 00 00 80 3f 00 00 80 3f 00 00 80 3f 00 00 80 3f
       1.0 1.0 1.0 1.0
000010 00 00 80 3f 00 00 80 3f 00 00 80 3f 00 00 80 3f
       1.0 1.0 1.0 1.0
000020 00 00 80 3f 00 00 80 3f 00 00 80 3f 00 00 80 3f
       1.0 1.0 1.0 1.0
000030 00 00 80 3f 00 00 80 3f 00 00 80 3f 00 00 80 3f
       1.0 1.0 1.0 1.0
000040 00 00 80 3f 00 00 80 3f 00 00 80 3f 00 00 80 3f
       1.0 1.0 1.0 1.0
000050 00 00 80 3f 00 00 80 3f 00 00 80 3f 00 00 80 3f
       1.0 1.0 1.0 1.0
000060 00 00 80 3f 00 00 80 3f 00 00 80 3f 00 00 80 3f
       1.0 1.0 1.0 1.0
000070 00 00 80 3f 00 00 80 3f 00 00 80 3f 00 00 80 3f
       1.0 1.0 1.0 1.0
000080 00 00 80 3f 00 00 80 3f 00 00 80 3f 00 00 80 3f
       1.0 1.0 1.0 1.0
000090 00 00 80 3f 00 00 80 3f 00 00 80 3f 00 00 80 3f
       1.0 1.0 1.0 1.0
0000a0 00 00 80 3f 00 00 80 3f 00 00 80 3f 00 00 80 3f
       1.0 1.0 1.0 1.0
0000b0 00 00 80 3f 00 00 80 3f 00 00 80 3f 00 00 80 3f
       1.0 1.0 1.0 1.0
0000c0 00 00 80 3f 00 00 80 3f 00 00 80 3f 00 00 80 3f
       1.0 1.0 1.0 1.0
0000d0 00 00 80 3f 00 00 80 3f 00 00 80 3f 00 00 80 3f
       1.0 1.0 1.0 1.0
0000e0 00 00 80 3f 00 00 80 3f 00 00 80 3f 00 00 80 3f
       1.0 1.0 1.0 1.0
0000f0 00 00 80 3f 00 00 80 3f 00 00 80 3f 00 00 80 3f
       1.0 1.0 1.0 1.0

weight f4 [1, 64]
000000 b1 60 11 3d 8c 6c 28 bd ce 40 22 3d cb 77 c0 3d
       0.035492603 -0.041119143 0.039612584 0.09397849
000010 1e 8f 99 bd 93 0f 24 3e be 48 18 3d ee 45 dc 3d
       -0.074980006 0.16021566 0.037178747 0.107555255
000020 ba 89 03 3d e1 08 16 be 29 98 f8 bd b2 51 1e be
       0.03211377 -0.14651825 -0.12138397 -0.15460852
000030 ff 43 0e 3c 90 5b 0c be 39 79 1a be b0 22 52 3d
       0.008683204 -0.13706803 -0.15085305 0.05130261
000040 e2 a3 15 be ca 36 d0 bd 79 ee eb bd b8 ea 79 3d
       -0.14613298 -0.101667 -0.115200944 0.06101486
000050 27 f8 11 3e e8 0c 92 3d da 07 fb bd 76 f2 16 3e
       0.14254819 0.07131368 -0.12257357 0.14740929
000060 17 ed 0c 3e cb 9e 75 bd 76 d3 e3 3d 2f c3 82 3d
       0.13762318 -0.05996589 0.11124317 0.063848846
000070 4e 62 c0 bd 55 be 67 bd 7d f9 e9 bd 13 c5 b2 3d
       -0.0939375 -0.056578 -0.11424539 0.08728995
000080 0e cb 82 3d 1f 06 ee bd 4c a7 9d bd 2b a7 fe 3c
       0.06386386 -0.11622261 -0.07697925 0.031085571
000090 80 ea 13 3e 2e 99 ce bd 07 47 2f bd 0c bc 14 bd
       0.14444923 -0.100878105 -0.042792346 -0.036312148
0000a0 b3 95 e3 bd 48 c9 74 bd 1a 02 5a bd 6b 65 94 bd
       -0.11112537 -0.05976227 -0.05322466 -0.072459064
0000b0 b2 22 84 bd 99 a2 6f 3d cb cd 3d bd 36 5f 59 bd
       -0.0645193 0.058504675 -0.046338838 -0.053069316
0000c0 f3 43 e8 3d f7 2a f0 3d fb d6 fa bc 18 2e 60 bd
       0.11341085 0.11726945 -0.030620089 -0.05473146
0000d0 db 61 12 be 46 ff 14 be 4d 61 49 bd 66 02 1f bd
       -0.14295141 -0.14550504 -0.04916506 -0.038820647
0000e0 e8 59 3f 3d 73 fe e0 bd 3e 1c b9 bd b5 84 d3 3c
       0.0467166 -0.10986032 -0.0903859 0.025820116
0000f0 8b 76 08 3e df 3f 01 3e e9 16 08 be 34 1d bf bb
       0.1332647 0.12622021 -0.1328999 -0.0058323387
