app/model.pt (torch, 154601 bytes, 5 tensors)

weight f4 [256, 14]
0	0x3e54c061	0.20776512
1	0x3e4bc1a1	0.19898082
2	0xbd910413	-0.07080855
3	0x3e5c1a07	0.21494304
4	0xbd8488aa	-0.06471379
5	0x3d376067	0.04476967
6	0xbdfb6a22	-0.122761026
7	0x3e21e712	0.15810803
8	0x3e817cdd	0.25290576
9	0xbe52ad74	-0.2057398
10	0x3e7afeb2	0.24511221
11	0x3d6f0553	0.058354687
12	0x3e442268	0.1915375
13	0xba969577	-0.0011488636
14	0x3e008819	0.12551917
15	0xbc32d5e8	-0.010915257
16	0x3e4fd571	0.20296265
17	0x3d24606c	0.040131018
18	0xbdd96ca0	-0.10616422
19	0x3d8a0ded	0.067409374
20	0xbdf3cf70	-0.119048
21	0xbc614096	-0.013748309
22	0xbddb0a85	-0.10695366
23	0x3e47488d	0.1946127
24	0xbe5d8d46	-0.21635923
25	0xbde87be1	-0.11351753
26	0xbd9fabf5	-0.0779647
27	0xbe14e643	-0.14540963
28	0x3d830d8c	0.06399068
29	0xbe7803a5	-0.2422014
30	0x3e89ac12	0.26889092
31	0xbe728447	-0.23683272
32	0x3e5125ab	0.20424525
33	0x3d762676	0.060095273
34	0xbd95605a	-0.07293768
35	0x3e32a6f8	0.17446506
36	0x3cc54895	0.024082461
37	0x3e5f66b5	0.21816523
38	0x3d084a12	0.033273764
39	0xbdad6970	-0.08467376
40	0x3da70bcb	0.08156546
41	0xbdae9c41	-0.08525897
42	0x3dfd4964	0.12367514
43	0x3e737f66	0.23779067
44	0x3e120fd2	0.14263847
45	0xbe07017d	-0.13184161
46	0x3e0f796c	0.14011163
47	0x3d373ea0	0.04473746
48	0x3e05468e	0.13015196
49	0xbe16cb27	-0.14725934
50	0xbe924363	-0.28567037
51	0xbdeb8b6d	-0.11501203
52	0xbe58cee5	-0.21172674
53	0x3e798844	0.24368387
54	0x3dabeb58	0.08394498
55	0x3dd58a3d	0.104267575
56	0x3dca51eb	0.09878906
57	0x3bd9c81f	0.0066461707
58	0x3e5ab78f	0.21359085
59	0xbe4f1f08	-0.20226681
60	0x3d11d9ba	0.03560803
61	0xbe36ae4e	-0.1783993
62	0x3dc14008	0.09436041
63	0xbdcd5d22	-0.10027529
64	0x3d8c9976	0.06865208
65	0xbd786485	-0.060642738
66	0x3e5d5fe9	0.21618618
67	0xbe21afe4	-0.15789753
68	0xbe1a5072	-0.1506975
69	0xbe40ac7d	-0.18815799
70	0x3e714ca9	0.235644
71	0x3dc27147	0.09494262
72	0x3e86afb2	0.2630592
73	0xbe6c5bd4	-0.23081905
74	0xbe7e89b7	-0.24857222
75	0xbe496425	-0.19667108
76	0xbe3d2ca2	-0.18474057
77	0x3ddc7bb4	0.10765782
78	0x3db5d332	0.08878173
79	0x3e6e707a	0.23285094
80	0xbe155a5f	-0.14585255
81	0xbe49b7cf	-0.19699024
82	0x3dfe865e	0.12427972
83	0xbdebae49	-0.11507852
84	0x3e2456fc	0.16048807
85	0xbd888087	-0.0666514
86	0x3e1cdd3a	0.15318766
87	0xbe628632	-0.22121504
88	0xbe137912	-0.14401653
89	0x3d93f8a7	0.07225161
90	0x3d385346	0.04500129
91	0xbdc0dbe9	-0.094169445
92	0x3e0a66f0	0.1351583
93	0x3e2d0818	0.16897619
94	0xbe5447fa	-0.20730582
95	0xbe24c7c2	-0.16091827
96	0x3e6816e2	0.22664979
97	0xbdf718e3	-0.12065294
98	0xbdc20b7f	-0.09474849
99	0xbe84674a	-0.25860053
100	0xbe1cb9cf	-0.15305255
101	0x3d88baf4	0.066762835
102	0xbd107e42	-0.03527666
103	0xbe46a83f	-0.19400118
104	0x3bcd6cba	0.0062690647
105	0xbe3af153	-0.1825612
106	0xbe682f75	-0.22674353
107	0xbe16b3f0	-0.14717078
108	0xbe6f862c	-0.23391026
109	0xbe2e4276	-0.1701754
110	0x3e88c8c3	0.2671567
111	0x3d4ec305	0.050478954
112	0x3d93051e	0.071787104
113	0xbe7f40bb	-0.24927036
114	0xbe33be2f	-0.17553018
115	0xbdb63060	-0.088959455
116	0x3d2b2e06	0.04179194
117	0xbe70d01b	-0.23516886
118	0xbdebd6bb	-0.11515566
119	0xbe23d747	-0.1600009
120	0x3a42282d	0.00074064994
121	0xbdcbabcb	-0.09944876
122	0xbc97b768	-0.018520072
123	0xbe39735e	-0.18110415
124	0xbe3bd97c	-0.18344682
125	0xbe1fa9ac	-0.15592068
126	0xbdd4bfd1	-0.103881486
127	0xbe66bdf8	-0.22533405
128	0x3e608325	0.21925028
129	0xbd13131c	-0.035906896
130	0x3e688e13	0.22710447
131	0x3db1663c	0.08662078
132	0xbe60acbf	-0.21940897
133	0x3e48cc97	0.19609295
134	0xbd54ec1d	-0.051982988
135	0xbdb2b267	-0.08725434
136	0xbe5fa255	-0.21839269
137	0xbe86c38a	-0.2632106
138	0x3d9f1ce3	0.077691816
139	0xbcf44b90	-0.029821187
140	0x3dee1a33	0.11626091
141	0xbe6914fd	-0.22761913
142	0x3e4cefc9	0.20013346
143	0xbe42fa26	-0.19040737
144	0xbd478481	-0.04871035
145	0x3d5b0ec2	0.05348087
146	0x3e15c204	0.14624792
147	0x3e5ade10	0.21373773
148	0x3e647711	0.22311045
149	0xbe65a9b9	-0.22428025
150	0x3d98c004	0.07458499
151	0xbdc0ce53	-0.09414353
152	0xbced438a	-0.02896287
153	0xbe5a1730	-0.21297908
154	0x3e5dd018	0.21661413
155	0xbe3d82b6	-0.18506894
156	0x3e144a1e	0.14481398
157	0x3dd6c099	0.10485954
158	0x3da93697	0.08262365
159	0xbe28d65d	-0.16488023
160	0x3e6abbc6	0.22923192
161	0x3d7d7e63	0.06188811
162	0x3d04ab70	0.032390058
163	0xbe7107a7	-0.23538075
164	0x3dc51957	0.09623974
165	0xbd3d8c36	-0.046276294
166	0xbdfc99dc	-0.12334034
167	0x3e88d561	0.26725295
168	0x3d9bdedf	0.07610869
169	0xbdd04e09	-0.10171134
170	0xbe0275d7	-0.12740265
171	0xbcfd4b02	-0.030919556
172	0x3e17a748	0.14809906
173	0xbd736b8a	-0.05942873
174	0xbe018f19	-0.12652244
175	0xbda67640	-0.08128023
176	0xbe2d6ea4	-0.16936737
177	0x3dc7a1d4	0.09747663
178	0x3e6ea490	0.23304963
179	0xbe75e359	-0.24012507
180	0x3d69650e	0.05698114
181	0x3e2a2572	0.16615847
182	0x3cd1ece3	0.025625652
183	0xbdc8e9c4	-0.09810212
184	0x3e06f9e1	0.13181259
185	0x3e14b2e9	0.14521374
186	0x3dbbeac2	0.09175636
187	0xbd8443a2	-0.064582124
188	0xbdb4c712	-0.08827032
189	0x3d2531f6	0.04033085
190	0xbd2a57ab	-0.041587513
191	0xbd9ed62a	-0.07755692
192	0x3e206b72	0.15665987
193	0x3e62bf75	0.22143348
194	0xbcfc0c1e	-0.030767497
195	0xbccb6ad8	-0.02483122
196	0x3bca0753	0.006165424
197	0x3c70c719	0.014695906
198	0x3d89206b	0.06695636
199	0x3e0250d9	0.12726153
200	0xbe8c6573	-0.2742115
201	0xbddf8b8f	-0.109152906
202	0x3e636449	0.22206225
203	0x3ddb5c43	0.10710957
204	0xbd1f2ab8	-0.0388591
205	0xbe343fac	-0.17602414
206	0xbe2dcbdc	-0.16972297
207	0xbe578595	-0.21047051
208	0xbdbbeb9b	-0.091757976
209	0x3ddafa93	0.106923245
210	0x3e4cf51b	0.20015375
211	0x3e1e8445	0.15480144
212	0xbe5a84fa	-0.21339789
213	0xbdf5542e	-0.119789466
214	0xbd0c59be	-0.034265272
215	0x3e81b119	0.25330427
216	0x3d569b9a	0.052394487
217	0xbde8051f	-0.11329102
218	0x3de078f7	0.10960572
219	0xbde9b7c3	-0.11412003
220	0xbe42c2cd	-0.19019623
221	0x3e6c157e	0.23055074
222	0xbdf8c5d4	-0.12147108
223	0xbd5dbed3	-0.054137062
224	0xbe92b0bf	-0.28650472
225	0x3e31e309	0.17371763
226	0x3e469ace	0.19394991
227	0x3de738e5	0.11290149
228	0xbe384ed2	-0.17998818
229	0xbe98ad8d	-0.2981991
230	0xbe5dcce6	-0.21660194
231	0x3e6169ec	0.22013062
232	0x3e13fb39	0.14451303
233	0x3e6edb69	0.23325886
234	0x3e0e8fec	0.1392209
235	0x3da29389	0.07938296
236	0xbb471118	-0.003037518
237	0xbe33ac4a	-0.17546192
238	0xbe6a7a41	-0.22898199
239	0xbe943adf	-0.28951165
240	0x3e085201	0.13312532
241	0xbe065dac	-0.1312167
242	0xbd5c4fc5	-0.05378701
243	0xbe1d806f	-0.15381025
244	0xbdb4bab0	-0.0882467
245	0xbe409f54	-0.18810779
246	0xbe5b4f65	-0.21417005
247	0x3db43d5b	0.08800765
248	0xbd598b79	-0.053111527
249	0x3e3119f5	0.17295058
250	0xbd6481ac	-0.055787727
251	0xbe2a773c	-0.16647047
252	0xbd8833e3	-0.066505216
253	0xbe06a767	-0.13149796
254	0xbdb4d11a	-0.088289455
255	0xbe829c1c	-0.25509727

bias f4 [256]
0	0xbe4b2207	-0.19837199
1	0xbc88ecfc	-0.016714565
2	0xbe362471	-0.17787339
3	0xbe1210dc	-0.14264244
4	0x3db6fa49	0.08934457
5	0x3df8499f	0.12123417
6	0x3dbefd03	0.09325602
7	0xbe80e2a5	-0.25172916
8	0xbd9a5810	-0.07536328
9	0x3df2ddd6	0.11858718
10	0xbd09e3b3	-0.033664417
11	0xbdb6c6aa	-0.08924611
12	0xbe0ccc23	-0.13749747
13	0x3e7bcb66	0.24589309
14	0xbe5357ec	-0.20639008
15	0xbe448ffd	-0.19195552
16	0x3e4c0203	0.19922642
17	0xbe0df19a	-0.13861695
18	0x3e17f4e1	0.14839508
19	0xbe185a25	-0.14878137
20	0x3c69f51d	0.014279631
21	0xbe043b0f	-0.12913154
22	0x3e5c6703	0.21523671
23	0x3e327444	0.17427164
24	0x3d369526	0.044575833
25	0x3bc8d8ce	0.0061293608
26	0xbdc832c2	-0.09775306
27	0xbe0008a0	-0.1250329
28	0xbd8c2920	-0.068437815
29	0x3dd4e045	0.103943385
30	0xbd500570	-0.050786436
31	0x3e40ae9c	0.18816608
32	0x3ce33ff8	0.027740464
33	0xbc22ec5e	-0.00994405
34	0xbe1bce7c	-0.15215486
35	0x3dd54a6e	0.10414587
36	0xbe611f87	-0.21984683
37	0x3d907db9	0.0705523
38	0x3dad4bec	0.084617466
39	0x3cf848a5	0.030308077
40	0x3e2e2889	0.1700765
41	0x3d517b65	0.05114307
42	0xbd5fb44a	-0.054615296
43	0xbe1ca4a1	-0.15297176
44	0xbe7dffde	-0.24804637
45	0x3e07f9d1	0.13278891
46	0x3e20c0e3	0.1569858
47	0xbe49e33c	-0.1971559
48	0x3d74d371	0.05977196
49	0xbdd8278c	-0.10554418
50	0x3e77031c	0.2412228
51	0xbda237c9	-0.079207964
52	0x3e5995a5	0.21248491
53	0x3e39fafa	0.18162146
54	0x3e229a85	0.15879257
55	0x3e352fd7	0.1769403
56	0x3dab7374	0.0837163
57	0x3dae34fc	0.085062
58	0xbe5d3407	-0.21601878
59	0xbd7e9b98	-0.062160105
60	0xbcee77cb	-0.029109856
61	0x3df09dfb	0.117488824
62	0xbdd2ea30	-0.10298574
63	0x3df16682	0.1178713
64	0x3e50543c	0.20344633
65	0x3dfbe2aa	0.12299092
66	0x3e0350cb	0.12823789
67	0xbcdb9ef8	-0.0268092
68	0x3df79852	0.120896
69	0xbdc48a88	-0.09596735
70	0x3e61707b	0.22015564
71	0x3997b33c	0.00028934504
72	0xbd1f8c42	-0.03895212
73	0xbe66da29	-0.22544159
74	0x3e7181f8	0.23584735
75	0xbd3d52e6	-0.046221636
76	0x3e44c747	0.19216643
77	0xbe21c722	-0.1579862
78	0xbe5c8754	-0.21535999
79	0xbce4f3db	-0.02794831
80	0xbe46fee5	-0.19433172
81	0x3d711812	0.058860846
82	0x3ca03ba3	0.019559687
83	0xbd9763d7	-0.0739209
84	0x3e231fad	0.15930052
85	0x3e340d68	0.17583239
86	0xbe73b88d	-0.2380087
87	0xbe5b6868	-0.21426547
88	0x3e0283c6	0.1274558
89	0xbe1187c6	-0.1421195
90	0x3d6a99bb	0.057275515
91	0xbda33c9c	-0.07970545
92	0x3d1ba274	0.037996724
93	0xbe1a6fe3	-0.15081744
94	0x3c3c5371	0.011494503
95	0xbdd804e6	-0.10547809
96	0xbdefd08c	-0.11709699
97	0xbe090484	-0.13380629
98	0x3d40cedc	0.047072276
99	0x3e3cfe1d	0.18456312
100	0xbbd7d194	-0.006586263
101	0xbbbff483	-0.0058580055
102	0x3e5b7255	0.21430333
103	0x3e6abd54	0.22923785
104	0xbd614713	-0.054999422
105	0xbe574f04	-0.21026236
106	0x3d89c092	0.06726183
107	0x3da28ea9	0.079373665
108	0xbe650e68	-0.22368777
109	0xbe3d9dc3	-0.18517213
110	0x3c8850c3	0.016640073
111	0x3e837db7	0.2568185
112	0xbe7ccef8	-0.24688327
113	0xbdf53c52	-0.11974396
114	0xbd88b790	-0.06675637
115	0xbe728b05	-0.23685844
116	0xbe16aad8	-0.14713609
117	0x3e49d977	0.19711863
118	0x3e5094a2	0.20369199
119	0xbe4cd2c0	-0.2000227
120	0x397cd70e	0.00024112707
121	0xbe597a42	-0.21238044
122	0x3dc29b41	0.095022686
123	0xbe4eaa2f	-0.20182107
124	0xbe00c874	-0.12576467
125	0xbe175a1e	-0.1478047
126	0x3d47d8c0	0.048790693
127	0x3e300673	0.1718996
128	0xbe0c047f	-0.1367359
129	0x3d7e3cf9	0.062069867
130	0x3e6bedee	0.23039982
131	0xbc5285a4	-0.012849245
132	0x3cd69000	0.026191711
133	0x3c9c1d60	0.019056976
134	0xbc8dc5c9	-0.017306225
135	0x3e19e215	0.1502765
136	0x3e351e80	0.17687416
137	0xbe0b73a1	-0.13618328
138	0x3e7fe4af	0.2498958
139	0x3e12d884	0.14340407
140	0xbd412c87	-0.047161605
141	0x3e602164	0.21887738
142	0x3d13cb1a	0.036082365
143	0x3e214c88	0.1575185
144	0xbe6eb4bc	-0.23311132
145	0x3e6bdce5	0.23033483
146	0x3e6f7572	0.23384646
147	0xbe5d1d3f	-0.21593188
148	0xbe648acd	-0.22318573
149	0xbdafb7d9	-0.08579988
150	0xbe1db5e3	-0.15401416
151	0x3d8c74ad	0.06858192
152	0x3dff3f82	0.12463285
153	0xbd2cfe58	-0.04223475
154	0x3e43203d	0.19055267
155	0x3c9a0771	0.018802376
156	0xbd275a81	-0.040857796
157	0xbe6b71ff	-0.22992705
158	0x3d942461	0.07233501
159	0xbe733644	-0.2375117
160	0x3cbaf45d	0.0228216
161	0x3d71d81f	0.059044
162	0xbe1598cf	-0.14609073
163	0x3daac3be	0.08338116
164	0x3db0d260	0.08633876
165	0x3e1e1c5e	0.15440509
166	0x3e33bf03	0.17553334
167	0xbe5bf849	-0.21481432
168	0xbe4956bb	-0.19661991
169	0xbd9df8c3	-0.07713463
170	0xbe33c4ba	-0.17555514
171	0x3d9a12cf	0.07523119
172	0xbe2fdff0	-0.17175269
173	0xbe4607ce	-0.19338915
174	0x3da3ef75	0.08004657
175	0x3e0d4e2c	0.13799351
176	0xbdc1ca61	-0.09462429
177	0xbe7e829e	-0.24854514
178	0x3d2a3223	0.04155172
179	0x3dfc4e1d	0.123195864
180	0x3e5fa84f	0.21841548
181	0x3ce002b4	0.027345039
182	0x3e39b43d	0.18135162
183	0xbe609a2c	-0.21933812
184	0x3e8371d6	0.25672787
185	0xbe2d94e5	-0.1695133
186	0xbe46fde4	-0.19432789
187	0x3e4941ff	0.19654082
188	0xbd9e34a6	-0.07724886
189	0x3e215a15	0.1575702
190	0xbe2a3730	-0.16622615
191	0x3e495db3	0.1966465
192	0x3e80c564	0.25150597
193	0x3da57686	0.08079247
194	0x3e63c4d4	0.22243053
195	0xbe5c4dff	-0.21514128
196	0xbda1617e	-0.07879923
197	0x3d8910cd	0.066926576
198	0x3e340e52	0.17583588
199	0xbe0b2143	-0.13586907
200	0x3e20fadc	0.15720695
201	0xbd908d03	-0.07058146
202	0xbe1a70c2	-0.15082076
203	0x3d424584	0.047429577
204	0xbe5d2b0e	-0.21598455
205	0xbe66c703	-0.22536854
206	0x3db2fb1c	0.087393016
207	0x3dd39311	0.10330785
208	0x3df15d8a	0.11785419
209	0xbd12137c	-0.035663113
210	0xbe4b98ed	-0.19882555
211	0xbe434e8e	-0.19072935
212	0x3e87deed	0.26537266
213	0xbe54bda8	-0.20775473
214	0x3dbe1abb	0.09282442
215	0x3e65f7b8	0.22457778
216	0x3e4f1d71	0.20226075
217	0xbe21a312	-0.15784863
218	0xbdd1a023	-0.10235622
219	0xbe3640b3	-0.17798118
220	0x3e1ffed5	0.15624554
221	0xbe7ce1a7	-0.24695455
222	0xbe7bf12d	-0.2460372
223	0xbe3d0d61	-0.18462135
224	0x3e525854	0.20541507
225	0x3e39fce3	0.18162875
226	0x3e20db9f	0.15708779
227	0x3e4cc0af	0.19995378
228	0xbe060623	-0.13088278
229	0xbe09dc41	-0.13462926
230	0xbe36b7a5	-0.17843492
231	0x3d746f19	0.059676263
232	0x3def9307	0.11697965
233	0x3d8395ba	0.064250425
234	0xbe4bc5ae	-0.19899628
235	0x3c999ffc	0.018753044
236	0xbe0c86e7	-0.13723336
237	0xbd300266	-0.042971037
238	0xbd006a83	-0.031351577
239	0x3c5db3ad	0.013531608
240	0xbe7643b8	-0.2404927
241	0x3e61a7b9	0.22036637
242	0xbdec7065	-0.11544875
243	0x3d8fc11c	0.070192546
244	0x3e3f131f	0.18659638
245	0x3de7cf06	0.113187835
246	0x3e37097b	0.1787471
247	0x3e2a3126	0.16620311
248	0x3e54c905	0.20779808
249	0x3d55d6bc	0.05220674
250	0x3e431a59	0.1905302
251	0xbdc7c4e8	-0.09754354
252	0xbe14aeac	-0.14519757
253	0x3e12ac6c	0.14323586
254	0x3d8e38b9	0.06944413
255	0xbc9530e8	-0.018211797

weight f4 [128, 256]
0	0xbd50aff6	-0.05094906
1	0x3cf45681	0.029826405
2	0x3d80cb2d	0.06288753
3	0x3b845382	0.004038275
4	0x3d48aa30	0.04899043
5	0x3d16dacc	0.036829755
6	0xbd42dee7	-0.047575857
7	0xbc287a28	-0.010283031
8	0xbc4c47f7	-0.01246833
9	0xbc923300	-0.017846584
10	0x3d889f58	0.066710174
11	0x3d913ca1	0.07091642
12	0xbcfc6871	-0.03081152
13	0x3d3e9202	0.046525963
14	0xbdb966d2	-0.090528145
15	0x3d66d8d1	0.056359116
16	0xbcf1dc83	-0.029524093
17	0x3c3884e9	0.011262157
18	0x3a938fda	0.0011258081
19	0x3cf4c7c8	0.02988042
20	0xbdb196ae	-0.08671318
21	0x3cd96ae4	0.026540227
22	0x3cf3c357	0.029756231
23	0x3d92ede5	0.07174281
24	0x3d5f8f39	0.054579947
25	0x388bf563	6.673743e-05
26	0x3c9d3992	0.01919249
27	0x3d72edb1	0.05930871
28	0xbc78cdc4	-0.015185777
29	0xbd3b50a2	-0.045731194
30	0xbd95a3f2	-0.07306661
31	0xbd9c2f4d	-0.076262094
32	0xbcfcaca8	-0.030844048
33	0x3d43315b	0.04765449
34	0xbd9839e1	-0.074329145
35	0xbc15b632	-0.009137677
36	0x3d1c07c3	0.03809334
37	0x3d9ef46c	0.077614635
38	0x3c65e9a6	0.014032757
39	0xbd3dc419	-0.04632959
40	0x3d43efda	0.047836162
41	0xbd303a3f	-0.043024298
42	0xbd1f4779	-0.03888652
43	0x3ce7319b	0.028221896
44	0x3d5e043a	0.05420325
45	0xbd826e1b	-0.06368657
46	0xbd1de598	-0.038549036
47	0x3d6382af	0.05554455
48	0x3bdff50b	0.0068346313
49	0xbd8d4b5d	-0.0689914
50	0x3cbb5f2e	0.022872534
51	0xbc391211	-0.011295811
52	0x3d08a1c8	0.03335741
53	0x3cc4644f	0.023973612
54	0xbc26e4e0	-0.010186404
55	0xbd5b28e5	-0.053505797
56	0xbda3cae5	-0.079976834
57	0xbcc05a88	-0.023480669
58	0xbd305df3	-0.043058347
59	0xbb719fee	-0.0036869007
60	0x3d3e8c0d	0.04652028
61	0xbd5def2e	-0.054183178
62	0xbcc20839	-0.023685561
63	0xbd96b49e	-0.07358669
64	0xbcfbc6a8	-0.030734375
65	0xbd813fa5	-0.06310967
66	0xbc4ccf8e	-0.012500657
67	0x3c93de39	0.0180503
68	0x3c89eda8	0.016836956
69	0x3ce25ca8	0.027632073
70	0x3d1283b5	0.035770137
71	0x3d183914	0.03716381
72	0xbcab3666	-0.020899963
73	0xbd20d34f	-0.03926402
74	0x3d93c681	0.07215596
75	0xbd4ae0f1	-0.049530927
76	0x3d1e1ddf	0.038602706
77	0xbdc47475	-0.09592525
78	0xbd626373	-0.055270623
79	0xbc9083ce	-0.017640974
80	0xbd6810c7	-0.056656625
81	0x3cef1f46	0.029189717
82	0x3d014a33	0.031564903
83	0xbc9f45f0	-0.019442528
84	0x3d5fed3c	0.054669604
85	0xbd4edf13	-0.05050571
86	0xbccde3ab	-0.025132975
87	0xbca5c08e	-0.020233419
88	0xbb734e8b	-0.0037125673
89	0xbd8c7d19	-0.06859798
90	0x3cd68a43	0.026188975
91	0x3d851c95	0.06499592
92	0xbcad8621	-0.021182122
93	0x3ca30125	0.019898007
94	0x3db72969	0.08943445
95	0x3c990073	0.018676972
96	0x3c9fd0d8	0.019508764
97	0x3c7865bd	0.015160975
98	0x3cd0612f	0.025436966
99	0xbd39a6e1	-0.045325164
100	0xbd1d2320	-0.038363576
101	0x3d0749cb	0.03302936
102	0x3d0d84e1	0.03455055
103	0x3c29c615	0.010362168
104	0x3d3e71c5	0.046495218
105	0x3d6a3a61	0.05718458
106	0x3d6c9afa	0.057764985
107	0x3d78488e	0.06061607
108	0x3c472979	0.012155884
109	0x3d431391	0.04762608
110	0x3d0c6fe6	0.034286402
111	0xbc63a39c	-0.013893988
112	0xbc60da95	-0.013723989
113	0xbd45d949	-0.048302922
114	0x3de4e4fd	0.111764885
115	0xbc1546d8	-0.009111129
116	0x3cf337b3	0.029689645
117	0x3b20e538	0.0024550688
118	0x3cdae3fc	0.02672004
119	0xbd1a87bc	-0.037727103
120	0xbcbf0890	-0.023319513
121	0xbd990419	-0.07471485
122	0xbb95d8cb	-0.004572963
123	0xbcef2fbe	-0.02919757
124	0xbd5bbcca	-0.05364684
125	0x3d7f4294	0.062319353
126	0x3cedec35	0.029043296
127	0x3d3aeccc	0.045635983
128	0xbd891288	-0.06692988
129	0xbca164e2	-0.019701425
130	0x3ca6f3e0	0.02037996
131	0x3cdab7cd	0.026698971
132	0x3cd8ac7e	0.026449438
133	0xbc3e63b0	-0.011620447
134	0xbd49f1f2	-0.049303003
135	0x3d3d024c	0.04614477
136	0xbb179fa6	-0.002313593
137	0x3d8a841c	0.06763479
138	0x3c898137	0.016785247
139	0x3cd62879	0.026142346
140	0x3cec593f	0.02885115
141	0x3b77e246	0.0037824078
142	0x3d7493bb	0.0597112
143	0x3d37ff2e	0.044921093
144	0xbd4948d3	-0.049141716
145	0x3d10584b	0.035240453
146	0x3c3b5cc1	0.0114356885
147	0xbcbdc277	-0.023164017
148	0xbd550776	-0.05200907
149	0xbb9f8e26	-0.0048692403
150	0xbc61fe24	-0.013793502
151	0x3d5769b1	0.05259103
152	0x3d873af2	0.0660304
153	0xbc707772	-0.0146769155
154	0x3c81a45f	0.015825449
155	0x3b7b1cb6	0.0038316674
156	0xbd1205c7	-0.03565004
157	0xbabf21ce	-0.0014582218
158	0xbd749f99	-0.059722517
159	0x3cc3df52	0.023910198
160	0x3dcedc30	0.10100591
161	0x3cf660bf	0.030075429
162	0xbca4db43	-0.020124083
163	0xbd12aed1	-0.03581125
164	0xbde1e3c3	-0.1102977
165	0xbd02dda8	-0.03194967
166	0x3d35e923	0.04441179
167	0xbd1096d6	-0.0353001
168	0x35f7d178	1.8463898e-06
169	0x39cc6f08	0.00038992637
170	0xbd6a938e	-0.057269625
171	0x3d158ddb	0.036512237
172	0xbd892d54	-0.06698099
173	0xbda8edeb	-0.08248504
174	0x3d912f69	0.07089121
175	0x3c6baad7	0.014383993
176	0x3c598c4e	0.01327808
177	0xbe08c588	-0.13356602
178	0x3d440a4e	0.04786139
179	0xbce7a2e7	-0.02827592
180	0x3cb6a087	0.022293342
181	0x3d843dd9	0.06457109
182	0xbd9bd6b6	-0.07609312
183	0x3d6355f9	0.05550191
184	0xbd13daa6	-0.03609719
185	0x3ce21b1c	0.027600817
186	0x3c9b5397	0.018960757
187	0x3c7cfd39	0.015441232
188	0xbbdf4897	-0.0068140733
189	0x3d626648	0.055273324
190	0xbd2dfa6a	-0.04247514
191	0x3bc69ea3	0.0060613914
192	0x3d398416	0.045291983
193	0xbcf54a9b	-0.029942801
194	0x3b22c3d3	0.0024835959
195	0x3c49ccff	0.012316941
196	0x3c265077	0.01015102
197	0xbcb8fe8e	-0.022582319
198	0x3dfdebff	0.12398528
199	0xbc82a2fb	-0.015946856
200	0x3cdd47e7	0.027011825
201	0x3d42b64c	0.047537133
202	0xbbfddb16	-0.0077470643
203	0x3d7de601	0.061986927
204	0x3d2fcd24	0.042920247
205	0x3d011b40	0.03152013
206	0xbd13cfaa	-0.036086716
207	0x3d946efe	0.072477326
208	0xbd0ecd17	-0.034863558
209	0x3c816445	0.015794883
210	0xbd014fac	-0.03157012
211	0xbba44501	-0.0050131087
212	0xbd8100ee	-0.062990054
213	0x3d9e0d6e	0.07717405
214	0x3bf9cd0e	0.0076233214
215	0x3c9510bd	0.018196458
216	0x3cd0e73a	0.025500882
217	0xbdaf0e4f	-0.08547651
218	0xbcaf61b8	-0.0214089
219	0x3d56a04b	0.05239896
220	0x3c935ceb	0.017988643
221	0x3d8c007c	0.0683603
222	0x3ce5ef5c	0.028068237
223	0x3d08b0f2	0.033371873
224	0x3d332cc5	0.043743867
225	0xbdb5345c	-0.088478774
226	0x3d4e172e	0.050315075
227	0xba61bb4c	-0.0008610978
228	0x3c365bf4	0.011130322
229	0x3d1bb935	0.038018424
230	0xbc14a44f	-0.009072377
231	0x3cf186d7	0.029483242
232	0xbc8d7fa3	-0.017272776
233	0x3d373a65	0.044733424
234	0x3c4cf7b1	0.012510226
235	0xbd403dfc	-0.046934113
236	0x3d6afb7a	0.057368733
237	0xbd66052b	-0.056157272
238	0xbd81f16d	-0.063448764
239	0x3d1a511f	0.03767502
240	0x3d980a3a	0.074238256
241	0xbd87f35a	-0.066382125
242	0x3d408632	0.04700298
243	0x3b0ca445	0.0021460217
244	0x3dac1059	0.084015556
245	0xbd2953e2	-0.041339763
246	0xbc1e3d7e	-0.009658216
247	0xbcb178ec	-0.021664105
248	0xbd8824f8	-0.06647676
249	0x3c3d3131	0.011547373
250	0xbd9b6bde	-0.075889334
251	0x3cc5398e	0.024075296
252	0xbb03c0b7	-0.002010388
253	0x3d36e688	0.044653445
254	0xbd3000dc	-0.04296957
255	0xbc129546	-0.008946722

bias f4 [128]
0	0xbb9527e9	-0.004551877
1	0x3d55efe7	0.05223074
2	0x3cbccea2	0.023047749
3	0x3d22601b	0.039642435
4	0xbd583066	-0.05278053
5	0xbaab3a4c	-0.0013063638
6	0xbd06468d	-0.032782126
7	0x3d0154dd	0.031575073
8	0x3d03c96c	0.032174513
9	0xbd0396d1	-0.03212625
10	0x3c301d20	0.010749131
11	0xbb8badc8	-0.0042626597
12	0xbd7e2341	-0.06204534
13	0x3d0dcc22	0.034618504
14	0x3d602019	0.05471811
15	0xbd5c4ab5	-0.053782184
16	0x3d3fdbfb	0.04684065
17	0x3d60664f	0.05478507
18	0x3ca4ce7d	0.020117993
19	0x3d01222e	0.031526737
20	0xbd1a14e5	-0.037617583
21	0x3b9a29f8	0.00470471
22	0x3d652819	0.055946443
23	0xbd5933ef	-0.053028043
24	0xbce504a2	-0.02795631
25	0xbc6c55e5	-0.014424776
26	0x3ce121ec	0.027481996
27	0xbce00d98	-0.027350232
28	0x3d51bbde	0.051204555
29	0x3ccb746c	0.024835788
30	0xbd5cc66f	-0.05390018
31	0xbd42f025	-0.0475923
32	0x3cb80b99	0.022466468
33	0x3d10fa41	0.03539491
34	0xbcc52414	-0.024065055
35	0x3c74d91c	0.014944341
36	0x3c888acd	0.016667748
37	0x3d5e49cc	0.054269597
38	0xbcda27f0	-0.026630372
39	0xbd1a47fe	-0.037666313
40	0x3d0ca417	0.034336176
41	0x3c8a3161	0.016869249
42	0x3c4dae15	0.012553711
43	0xbd338ba7	-0.043834355
44	0xbd5f516d	-0.054521013
45	0xbd88de62	-0.06683041
46	0x3d73e091	0.059540335
47	0x3d57854e	0.052617364
48	0x3cc060da	0.023483682
49	0xbcf9262d	-0.030413711
50	0x3d083993	0.033258032
51	0xbc3fbe4e	-0.011703087
52	0xbbd5ad78	-0.006520923
53	0xbca2ab04	-0.019856937
54	0xbcc94f04	-0.02457381
55	0x3cb642d7	0.022248669
56	0xbd2c6bd4	-0.04209502
57	0x3c52a53a	0.012856776
58	0x3b99d650	0.0046947375
59	0x3c438cf4	0.011935461
60	0xbb7679e3	-0.0037609271
61	0x3d635e04	0.055509582
62	0x3d268089	0.040649924
63	0xbd136e0b	-0.035993617
64	0x3c74711d	0.014919546
65	0xbc86d500	-0.016458988
66	0xbc91f9b5	-0.017819265
67	0x3d617536	0.05504342
68	0xbce31b1e	-0.027722891
69	0xbc16b80e	-0.0091991555
70	0xbcefa382	-0.029252771
71	0xbd0b5e3f	-0.034025427
72	0x3d50578e	0.05086475
73	0x3ce1bc65	0.027555654
74	0x3d2a929d	0.041643728
75	0x3cc2ef63	0.02379579
76	0xbc9f5b51	-0.019452723
77	0x3d7b0c3b	0.06129096
78	0x3b24ab4b	0.0025126513
79	0xbd07d776	-0.033164464
80	0xbcbe0822	-0.023197237
81	0x3cae0eb3	0.021247244
82	0x3d205d29	0.039151344
83	0x3d23c492	0.039982386
84	0xbcda752e	-0.026667204
85	0x3d6459c9	0.05574969
86	0xbcfcf489	-0.030878322
87	0xbd4f495a	-0.050607063
88	0x3d5be767	0.05368748
89	0xbcb88c37	-0.022527797
90	0xbd02b196	-0.03190764
91	0x3c999531	0.018747898
92	0x3c117a2d	0.008879227
93	0x3bf1b8a5	0.0073767477
94	0x3c815041	0.015785338
95	0xbd26ff5c	-0.040770873
96	0x3cdc9cf6	0.026930314
97	0xbc98e4c7	-0.018663777
98	0xbd3b5378	-0.0457339
99	0x3d089212	0.03334243
100	0xbd224fc3	-0.039626848
101	0x3d29552d	0.041340996
102	0x3cab4a76	0.02090953
103	0xbcb49002	-0.022041325
104	0xbd5ad15b	-0.053422313
105	0xb8ec064a	-0.00011254528
106	0x3d70ef27	0.058821823
107	0x3c8fd987	0.01755978
108	0x3d358b7a	0.04432247
109	0xbd26a641	-0.040685896
110	0x3d0404cf	0.03223115
111	0xbd0c85e7	-0.034307387
112	0xbd707373	-0.05870385
113	0x3cd8106f	0.026375024
114	0xbccbcfcd	-0.02487936
115	0x3d5751b5	0.052568156
116	0x3d58038f	0.05273777
117	0x3cec5174	0.028847434
118	0x3d672ee1	0.05644119
119	0x3d2fef93	0.042953085
120	0x3c8acf6c	0.01694461
121	0xbd30f990	-0.04320675
122	0xbd17c7e1	-0.037055854
123	0xbd2496a0	-0.04018271
124	0xbd641a0f	-0.055688914
125	0x3d386109	0.045014415
126	0x3d795158	0.06086859
127	0xbd00ef92	-0.031478472

weight f4 [1, 128]
0	0xbcd87252	-0.0264217
1	0xbd89be3c	-0.067257375
2	0xbddc6bf1	-0.10762776
3	0xbdc06c16	-0.09395616
4	0x3d9efcb3	0.07763042
5	0xbda8a3ba	-0.08234353
6	0x3d704520	0.058659673
7	0x3d6d6a11	0.05796248
8	0x3da59029	0.08084137
9	0x3d29eaeb	0.0414838
10	0xbd7a3394	-0.061084345
11	0xbda759ca	-0.08171423
12	0x3e08641a	0.13319436
13	0xbda5c600	-0.08094406
14	0xbd845815	-0.06462113
15	0xbd1b06bc	-0.03784822
16	0x3d81dd89	0.063410826
17	0xbd993fcd	-0.07482872
18	0x3d73eba1	0.059550885
19	0x3d41d58b	0.04732279
20	0x3cb15ba7	0.021650149
21	0x3c74cd06	0.0149414595
22	0xbde018ee	-0.10942255
23	0x3dd0427b	0.1016893
24	0x3df95428	0.12174255
25	0xbc9a1527	-0.018808914
26	0x3d941ab2	0.07231654
27	0xbccde186	-0.025131952
28	0xbdbf8e73	-0.09353342
29	0x3d724f32	0.059157558
30	0x3d75b66f	0.059988435
31	0x3d2fa5fb	0.0428829
32	0x3d6d7e8e	0.05798202
33	0x3d2af431	0.041736785
34	0xbdc77c12	-0.097404614
35	0xbcfbbdca	-0.030730147
36	0xbd7fcb23	-0.062449586
37	0x3d90bfc5	0.07067827
38	0xbd7dc855	-0.06195863
39	0x3d2826c8	0.04105261
40	0xbc9797c2	-0.018504981
41	0x3d7a6cc1	0.061138872
42	0xbcf44eb4	-0.029822685
43	0x3d5de295	0.054171164
44	0xbd416992	-0.04721982
45	0x3d863887	0.065537505
46	0x3db6873f	0.08912515
47	0xbd404ea8	-0.046950012
48	0xbd56e825	-0.052467484
49	0xbd284e20	-0.04109013
50	0xbd8ca778	-0.0686788
51	0xbce5d4a5	-0.028055498
52	0xbd165c4f	-0.036709126
53	0xbcfbf5d1	-0.030756863
54	0xbd17d1ca	-0.037065305
55	0xbd47a077	-0.048737016
56	0xbdb12628	-0.08649856
57	0xbdbc936d	-0.09207807
58	0xbc00404e	-0.007827831
59	0xbdb27e9b	-0.08715554
60	0x3d7d4d41	0.061841253
61	0x3d62f32f	0.0554077
62	0xbcfbba67	-0.030728532
63	0x3d80ab1d	0.06282637
64	0xbd6733e3	-0.056445967
65	0xbbc8ff0b	-0.006133919
66	0xbd59b585	-0.053151626
67	0x3da87f0f	0.082273595
68	0xbc32e134	-0.01091795
69	0xbd78478b	-0.060615104
70	0x3db2741b	0.087135516
71	0x3d64fd67	0.055905726
72	0xbd7efc7b	-0.062252503
73	0xbc81963e	-0.015818711
74	0x3dae7172	0.08517732
75	0xbd92576f	-0.07145583
76	0xbd892a12	-0.066974774
77	0x3d5b594d	0.05355196
78	0xbd402475	-0.046909768
79	0xbd363107	-0.04448035
80	0x3c8839a6	0.016629051
81	0xbdc407ee	-0.09571825
82	0xbd9e2ba6	-0.07723169
83	0xbd48ae29	-0.048994217
84	0xbd74cc1d	-0.05976497
85	0x3d32df0d	0.04366975
86	0x3c6c6940	0.01442939
87	0xbd2588a4	-0.040413514
88	0xbdae35b8	-0.0850634
89	0x3ddbdf13	0.107359074
90	0x3da2f391	0.07956613
91	0x3d3998db	0.04531179
92	0x3d9df294	0.07712284
93	0x3d94b537	0.072611265
94	0x3da7c8d5	0.081926025
95	0xbd430162	-0.04760874
96	0x3d58ab75	0.05289789
97	0xbca04ff7	-0.01956938
98	0x3d1de39a	0.038547136
99	0x3d785a63	0.060633074
100	0xbca90f8c	-0.020637296
101	0x3dbe92a7	0.093053155
102	0x3cb587e6	0.022159528
103	0x3be1e3a5	0.0068935924
104	0xbd8283b8	-0.063727796
105	0x3daeb2f4	0.08530226
106	0x3d9083c6	0.07056384
107	0x3cf0b876	0.029384833
108	0x3dbe2953	0.09285226
109	0x3cadfbf8	0.021238312
110	0x3d57cf76	0.052688085
111	0xbd04e287	-0.032442596
112	0xbbfcb419	-0.007711899
113	0x3cfef76e	0.031123843
114	0x3daa8906	0.083269164
115	0x3d9e3e0e	0.0772668
116	0xbd50004c	-0.050781533
117	0xbda41f6c	-0.08013806
118	0x3d8cca67	0.06874543
119	0xbdb76230	-0.08954275
120	0x3dc3849f	0.0954678
121	0x3db4c785	0.08827118
122	0xbd9333a2	-0.071875826
123	0xbd934e37	-0.07192653
124	0x3d9b4dc3	0.07583191
125	0x3c458324	0.012055192
126	0xbd86ad93	-0.065760754
127	0x3da09b4d	0.07842121
